layer {
  name: "data"
  type: "Python"
  top: "im"
  top: "im_pos"
  top: "im_neg"
    include {
    phase: TRAIN
  }
  python_param {
    module: "triplet_data_layer"
    layer: "tripletDataLayer"
    param_str: "{\'rotate_prob\': 0, \'resize_h\': 224, \'HSV_jitter\': 0.05, \'scaling_factor\': 1.3, \'color_casting_jitter\': 10, \'scaling_prob\': 0, \'dir\': \'../../../hd/datasets/landmarks_recognition\', \'batch_size\': 10, \'crop_h\': 224, \'color_casting_prob\': 0, \'crop_w\': 224, \'train\': True, \'resize\': False, \'split\': \'splits/myTrain\', \'mirror\': True, \'resize_w\': 224, \'HSV_prob\': 0, \'crop_margin\': 0, \'rotate_angle\': 8, \'num_classes\': 0, \'mean\': (104, 117, 123)}"
  }
}


layer {
  name: "data"
  type: "Python"
  top: "im"
  top: "im_pos"
  top: "im_neg"
      include {
    phase: TEST
  }
  python_param {
    module: "triplet_data_layer"
    layer: "tripletDataLayer"
    param_str: "{\'rotate_prob\': 0, \'resize_h\': 224, \'HSV_jitter\': 0.05, \'scaling_factor\': 1.3, \'color_casting_jitter\': 10, \'scaling_prob\': 0, \'dir\': \'../../../hd/datasets/landmarks_recognition\', \'batch_size\': 10, \'crop_h\': 224, \'color_casting_prob\': 0, \'crop_w\': 224, \'train\': False, \'resize\': True, \'split\': \'splits/myVal\', \'mirror\': False, \'resize_w\': 224, \'HSV_prob\': 0, \'crop_margin\': 0, \'rotate_angle\': 8, \'num_classes\': 0, \'mean\': (104, 117, 123)}"
  }
}


# -- NET 0

layer {
  name: "conv1/7x7_s2"
  type: "Convolution"
  bottom: "im"
  top: "conv1/7x7_s2"
  param {
    name: "conv1/7x7_s2_w"
    lr_mult: 1
    decay_mult: 1
  }
  param {
    name: "conv1/7x7_s2_b"
    lr_mult: 2
    decay_mult: 0
  }
  convolution_param {
    num_output: 64
    pad: 3
    kernel_size: 7
    stride: 2
    weight_filler {
      type: "xavier"
    }
    bias_filler {
      type: "constant"
      value: 0.2
    }
  }
}
layer {
  name: "conv1/relu_7x7"
  type: "ReLU"
  bottom: "conv1/7x7_s2"
  top: "conv1/7x7_s2"
}
layer {
  name: "pool1/3x3_s2"
  type: "Pooling"
  bottom: "conv1/7x7_s2"
  top: "pool1/3x3_s2"
  pooling_param {
    pool: MAX
    kernel_size: 3
    stride: 2
  }
}
layer {
  name: "pool1/norm1"
  type: "LRN"
  bottom: "pool1/3x3_s2"
  top: "pool1/norm1"
  lrn_param {
    local_size: 5
    alpha: 0.0001
    beta: 0.75
  }
}
layer {
  name: "conv2/3x3_reduce"
  type: "Convolution"
  bottom: "pool1/norm1"
  top: "conv2/3x3_reduce"
  param {
    name: "conv2/3x3_reduce_w"
    lr_mult: 1
    decay_mult: 1
  }
  param {
    name: "conv2/3x3_reduce_b"
    lr_mult: 2
    decay_mult: 0
  }
  convolution_param {
    num_output: 64
    kernel_size: 1
    weight_filler {
      type: "xavier"
    }
    bias_filler {
      type: "constant"
      value: 0.2
    }
  }
}
layer {
  name: "conv2/relu_3x3_reduce"
  type: "ReLU"
  bottom: "conv2/3x3_reduce"
  top: "conv2/3x3_reduce"
}
layer {
  name: "conv2/3x3"
  type: "Convolution"
  bottom: "conv2/3x3_reduce"
  top: "conv2/3x3"
  param {
    name: "conv2/3x3_w"
    lr_mult: 1
    decay_mult: 1
  }
  param {
    name: "conv2/3x3_b"
    lr_mult: 2
    decay_mult: 0
  }
  convolution_param {
    num_output: 192
    pad: 1
    kernel_size: 3
    weight_filler {
      type: "xavier"
    }
    bias_filler {
      type: "constant"
      value: 0.2
    }
  }
}
layer {
  name: "conv2/relu_3x3"
  type: "ReLU"
  bottom: "conv2/3x3"
  top: "conv2/3x3"
}
layer {
  name: "conv2/norm2"
  type: "LRN"
  bottom: "conv2/3x3"
  top: "conv2/norm2"
  lrn_param {
    local_size: 5
    alpha: 0.0001
    beta: 0.75
  }
}
layer {
  name: "pool2/3x3_s2"
  type: "Pooling"
  bottom: "conv2/norm2"
  top: "pool2/3x3_s2"
  pooling_param {
    pool: MAX
    kernel_size: 3
    stride: 2
  }
}
layer {
  name: "inception_3a/1x1"
  type: "Convolution"
  bottom: "pool2/3x3_s2"
  top: "inception_3a/1x1"
  param {
    name: "inception_3a/1x1_w"
    lr_mult: 1
    decay_mult: 1
  }
  param {
    name: "inception_3a/1x1_b"
    lr_mult: 2
    decay_mult: 0
  }
  convolution_param {
    num_output: 64
    kernel_size: 1
    weight_filler {
      type: "xavier"
    }
    bias_filler {
      type: "constant"
      value: 0.2
    }
  }
}
layer {
  name: "inception_3a/relu_1x1"
  type: "ReLU"
  bottom: "inception_3a/1x1"
  top: "inception_3a/1x1"
}
layer {
  name: "inception_3a/3x3_reduce"
  type: "Convolution"
  bottom: "pool2/3x3_s2"
  top: "inception_3a/3x3_reduce"
  param {
    name: "inception_3a/3x3_reduce_w"
    lr_mult: 1
    decay_mult: 1
  }
  param {
    name: "inception_3a/3x3_reduce_b"
    lr_mult: 2
    decay_mult: 0
  }
  convolution_param {
    num_output: 96
    kernel_size: 1
    weight_filler {
      type: "xavier"
    }
    bias_filler {
      type: "constant"
      value: 0.2
    }
  }
}
layer {
  name: "inception_3a/relu_3x3_reduce"
  type: "ReLU"
  bottom: "inception_3a/3x3_reduce"
  top: "inception_3a/3x3_reduce"
}
layer {
  name: "inception_3a/3x3"
  type: "Convolution"
  bottom: "inception_3a/3x3_reduce"
  top: "inception_3a/3x3"
  param {
    name: "inception_3a/3x3_w"
    lr_mult: 1
    decay_mult: 1
  }
  param {
    name: "inception_3a/3x3_b"
    lr_mult: 2
    decay_mult: 0
  }
  convolution_param {
    num_output: 128
    pad: 1
    kernel_size: 3
    weight_filler {
      type: "xavier"
    }
    bias_filler {
      type: "constant"
      value: 0.2
    }
  }
}
layer {
  name: "inception_3a/relu_3x3"
  type: "ReLU"
  bottom: "inception_3a/3x3"
  top: "inception_3a/3x3"
}
layer {
  name: "inception_3a/5x5_reduce"
  type: "Convolution"
  bottom: "pool2/3x3_s2"
  top: "inception_3a/5x5_reduce"
  param {
    name: "inception_3a/5x5_reduce_w"
    lr_mult: 1
    decay_mult: 1
  }
  param {
    name: "inception_3a/5x5_reduce_b"
    lr_mult: 2
    decay_mult: 0
  }
  convolution_param {
    num_output: 16
    kernel_size: 1
    weight_filler {
      type: "xavier"
    }
    bias_filler {
      type: "constant"
      value: 0.2
    }
  }
}
layer {
  name: "inception_3a/relu_5x5_reduce"
  type: "ReLU"
  bottom: "inception_3a/5x5_reduce"
  top: "inception_3a/5x5_reduce"
}
layer {
  name: "inception_3a/5x5"
  type: "Convolution"
  bottom: "inception_3a/5x5_reduce"
  top: "inception_3a/5x5"
  param {
    name: "inception_3a/5x5_w"
    lr_mult: 1
    decay_mult: 1
  }
  param {
    name: "inception_3a/5x5_b"
    lr_mult: 2
    decay_mult: 0
  }
  convolution_param {
    num_output: 32
    pad: 2
    kernel_size: 5
    weight_filler {
      type: "xavier"
    }
    bias_filler {
      type: "constant"
      value: 0.2
    }
  }
}
layer {
  name: "inception_3a/relu_5x5"
  type: "ReLU"
  bottom: "inception_3a/5x5"
  top: "inception_3a/5x5"
}
layer {
  name: "inception_3a/pool"
  type: "Pooling"
  bottom: "pool2/3x3_s2"
  top: "inception_3a/pool"
  pooling_param {
    pool: MAX
    kernel_size: 3
    stride: 1
    pad: 1
  }
}
layer {
  name: "inception_3a/pool_proj"
  type: "Convolution"
  bottom: "inception_3a/pool"
  top: "inception_3a/pool_proj"
  param {
    name: "inception_3a/pool_proj_w"
    lr_mult: 1
    decay_mult: 1
  }
  param {
    name: "inception_3a/pool_proj_b"
    lr_mult: 2
    decay_mult: 0
  }
  convolution_param {
    num_output: 32
    kernel_size: 1
    weight_filler {
      type: "xavier"
    }
    bias_filler {
      type: "constant"
      value: 0.2
    }
  }
}
layer {
  name: "inception_3a/relu_pool_proj"
  type: "ReLU"
  bottom: "inception_3a/pool_proj"
  top: "inception_3a/pool_proj"
}
layer {
  name: "inception_3a/output"
  type: "Concat"
  bottom: "inception_3a/1x1"
  bottom: "inception_3a/3x3"
  bottom: "inception_3a/5x5"
  bottom: "inception_3a/pool_proj"
  top: "inception_3a/output"
}
layer {
  name: "inception_3b/1x1"
  type: "Convolution"
  bottom: "inception_3a/output"
  top: "inception_3b/1x1"
  param {
    name: "inception_3b/1x1_w"
    lr_mult: 1
    decay_mult: 1
  }
  param {
    name: "inception_3b/1x1_b"
    lr_mult: 2
    decay_mult: 0
  }
  convolution_param {
    num_output: 128
    kernel_size: 1
    weight_filler {
      type: "xavier"
    }
    bias_filler {
      type: "constant"
      value: 0.2
    }
  }
}
layer {
  name: "inception_3b/relu_1x1"
  type: "ReLU"
  bottom: "inception_3b/1x1"
  top: "inception_3b/1x1"
}
layer {
  name: "inception_3b/3x3_reduce"
  type: "Convolution"
  bottom: "inception_3a/output"
  top: "inception_3b/3x3_reduce"
  param {
    name: "inception_3b/3x3_reduce_w"
    lr_mult: 1
    decay_mult: 1
  }
  param {
    name: "inception_3b/3x3_reduce_b"
    lr_mult: 2
    decay_mult: 0
  }
  convolution_param {
    num_output: 128
    kernel_size: 1
    weight_filler {
      type: "xavier"
    }
    bias_filler {
      type: "constant"
      value: 0.2
    }
  }
}
layer {
  name: "inception_3b/relu_3x3_reduce"
  type: "ReLU"
  bottom: "inception_3b/3x3_reduce"
  top: "inception_3b/3x3_reduce"
}
layer {
  name: "inception_3b/3x3"
  type: "Convolution"
  bottom: "inception_3b/3x3_reduce"
  top: "inception_3b/3x3"
  param {
    name: "inception_3b/3x3_w"
    lr_mult: 1
    decay_mult: 1
  }
  param {
    name: "inception_3b/3x3_b"
    lr_mult: 2
    decay_mult: 0
  }
  convolution_param {
    num_output: 192
    pad: 1
    kernel_size: 3
    weight_filler {
      type: "xavier"
    }
    bias_filler {
      type: "constant"
      value: 0.2
    }
  }
}
layer {
  name: "inception_3b/relu_3x3"
  type: "ReLU"
  bottom: "inception_3b/3x3"
  top: "inception_3b/3x3"
}
layer {
  name: "inception_3b/5x5_reduce"
  type: "Convolution"
  bottom: "inception_3a/output"
  top: "inception_3b/5x5_reduce"
  param {
    name: "inception_3b/5x5_reduce_w"
    lr_mult: 1
    decay_mult: 2
  }
  param {
    name: "inception_3b/5x5_reduce_b"
    lr_mult: 2
    decay_mult: 0
  }
  convolution_param {
    num_output: 32
    kernel_size: 1
    weight_filler {
      type: "xavier"
    }
    bias_filler {
      type: "constant"
      value: 0.2
    }
  }
}
layer {
  name: "inception_3b/relu_5x5_reduce"
  type: "ReLU"
  bottom: "inception_3b/5x5_reduce"
  top: "inception_3b/5x5_reduce"
}
layer {
  name: "inception_3b/5x5"
  type: "Convolution"
  bottom: "inception_3b/5x5_reduce"
  top: "inception_3b/5x5"
  param {
    name: "inception_3b/5x5_w"
    lr_mult: 1
    decay_mult: 1
  }
  param {
    name: "inception_3b/5x5_b"
    lr_mult: 2
    decay_mult: 0
  }
  convolution_param {
    num_output: 96
    pad: 2
    kernel_size: 5
    weight_filler {
      type: "xavier"
    }
    bias_filler {
      type: "constant"
      value: 0.2
    }
  }
}
layer {
  name: "inception_3b/relu_5x5"
  type: "ReLU"
  bottom: "inception_3b/5x5"
  top: "inception_3b/5x5"
}
layer {
  name: "inception_3b/pool"
  type: "Pooling"
  bottom: "inception_3a/output"
  top: "inception_3b/pool"
  pooling_param {
    pool: MAX
    kernel_size: 3
    stride: 1
    pad: 1
  }
}
layer {
  name: "inception_3b/pool_proj"
  type: "Convolution"
  bottom: "inception_3b/pool"
  top: "inception_3b/pool_proj"
  param {
    name: "inception_3b/pool_proj_w"
    lr_mult: 1
    decay_mult: 1
  }
  param {
    name: "inception_3b/pool_proj_b"
    lr_mult: 2
    decay_mult: 0
  }
  convolution_param {
    num_output: 64
    kernel_size: 1
    weight_filler {
      type: "xavier"
    }
    bias_filler {
      type: "constant"
      value: 0.2
    }
  }
}
layer {
  name: "inception_3b/relu_pool_proj"
  type: "ReLU"
  bottom: "inception_3b/pool_proj"
  top: "inception_3b/pool_proj"
}
layer {
  name: "inception_3b/output"
  type: "Concat"
  bottom: "inception_3b/1x1"
  bottom: "inception_3b/3x3"
  bottom: "inception_3b/5x5"
  bottom: "inception_3b/pool_proj"
  top: "inception_3b/output"
}
layer {
  name: "pool3/3x3_s2"
  type: "Pooling"
  bottom: "inception_3b/output"
  top: "pool3/3x3_s2"
  pooling_param {
    pool: MAX
    kernel_size: 3
    stride: 2
  }
}
layer {
  name: "inception_4a/1x1"
  type: "Convolution"
  bottom: "pool3/3x3_s2"
  top: "inception_4a/1x1"
  param {
  name: "inception_4a/1x1_w"
    lr_mult: 1
    decay_mult: 1
  }
  param {
  name: "inception_4a/1x1_b"
    lr_mult: 2
    decay_mult: 0
  }
  convolution_param {
    num_output: 192
    kernel_size: 1
    weight_filler {
      type: "xavier"
    }
    bias_filler {
      type: "constant"
      value: 0.2
    }
  }
}
layer {
  name: "inception_4a/relu_1x1"
  type: "ReLU"
  bottom: "inception_4a/1x1"
  top: "inception_4a/1x1"
}
layer {
  name: "inception_4a/3x3_reduce"
  type: "Convolution"
  bottom: "pool3/3x3_s2"
  top: "inception_4a/3x3_reduce"
  param {
  name: "inception_4a/3x3_reduce_w"
    lr_mult: 1
    decay_mult: 1
  }
  param {
  name: "inception_4a/3x3_reduce_b"
    lr_mult: 2
    decay_mult: 0
  }
  convolution_param {
    num_output: 96
    kernel_size: 1
    weight_filler {
      type: "xavier"
    }
    bias_filler {
      type: "constant"
      value: 0.2
    }
  }
}
layer {
  name: "inception_4a/relu_3x3_reduce"
  type: "ReLU"
  bottom: "inception_4a/3x3_reduce"
  top: "inception_4a/3x3_reduce"
}
layer {
  name: "inception_4a/3x3"
  type: "Convolution"
  bottom: "inception_4a/3x3_reduce"
  top: "inception_4a/3x3"
  param {
  name: "inception_4a/3x3_w"
    lr_mult: 1
    decay_mult: 1
  }
  param {
  name: "inception_4a/3x3_b"
    lr_mult: 2
    decay_mult: 0
  }
  convolution_param {
    num_output: 208
    pad: 1
    kernel_size: 3
    weight_filler {
      type: "xavier"
    }
    bias_filler {
      type: "constant"
      value: 0.2
    }
  }
}
layer {
  name: "inception_4a/relu_3x3"
  type: "ReLU"
  bottom: "inception_4a/3x3"
  top: "inception_4a/3x3"
}
layer {
  name: "inception_4a/5x5_reduce"
  type: "Convolution"
  bottom: "pool3/3x3_s2"
  top: "inception_4a/5x5_reduce"
  param {
  name: "inception_4a/5x5_reduce_w"
    lr_mult: 1
    decay_mult: 1
  }
  param {
  name: "inception_4a/5x5_reduce_b"
    lr_mult: 2
    decay_mult: 0
  }
  convolution_param {
    num_output: 16
    kernel_size: 1
    weight_filler {
      type: "xavier"
    }
    bias_filler {
      type: "constant"
      value: 0.2
    }
  }
}
layer {
  name: "inception_4a/relu_5x5_reduce"
  type: "ReLU"
  bottom: "inception_4a/5x5_reduce"
  top: "inception_4a/5x5_reduce"
}
layer {
  name: "inception_4a/5x5"
  type: "Convolution"
  bottom: "inception_4a/5x5_reduce"
  top: "inception_4a/5x5"
  param {
  name: "inception_4a/5x5_w"
    lr_mult: 1
    decay_mult: 1
  }
  param {
  name: "inception_4a/5x5_b"
    lr_mult: 2
    decay_mult: 0
  }
  convolution_param {
    num_output: 48
    pad: 2
    kernel_size: 5
    weight_filler {
      type: "xavier"
    }
    bias_filler {
      type: "constant"
      value: 0.2
    }
  }
}
layer {
  name: "inception_4a/relu_5x5"
  type: "ReLU"
  bottom: "inception_4a/5x5"
  top: "inception_4a/5x5"
}
layer {
  name: "inception_4a/pool"
  type: "Pooling"
  bottom: "pool3/3x3_s2"
  top: "inception_4a/pool"
  pooling_param {
    pool: MAX
    kernel_size: 3
    stride: 1
    pad: 1
  }
}
layer {
  name: "inception_4a/pool_proj"
  type: "Convolution"
  bottom: "inception_4a/pool"
  top: "inception_4a/pool_proj"
  param {
  name: "inception_4a/pool_proj_w"
    lr_mult: 1
    decay_mult: 1
  }
  param {
  name: "inception_4a/pool_proj_b"
    lr_mult: 2
    decay_mult: 0
  }
  convolution_param {
    num_output: 64
    kernel_size: 1
    weight_filler {
      type: "xavier"
    }
    bias_filler {
      type: "constant"
      value: 0.2
    }
  }
}
layer {
  name: "inception_4a/relu_pool_proj"
  type: "ReLU"
  bottom: "inception_4a/pool_proj"
  top: "inception_4a/pool_proj"
}
layer {
  name: "inception_4a/output"
  type: "Concat"
  bottom: "inception_4a/1x1"
  bottom: "inception_4a/3x3"
  bottom: "inception_4a/5x5"
  bottom: "inception_4a/pool_proj"
  top: "inception_4a/output"
}

# -- PREPROCESSING FOR LOSS 1


layer {
  name: "loss1/ave_pool"
  type: "Pooling"
  bottom: "inception_4a/output"
  top: "loss1/ave_pool"
  pooling_param {
    pool: AVE
    kernel_size: 5
    stride: 3
  }
}
layer {
  name: "loss1/conv"
  type: "Convolution"
  bottom: "loss1/ave_pool"
  top: "loss1/conv"
  param {
  name: "loss1/conv_w"
    lr_mult: 1
    decay_mult: 1
  }
  param {
  name: "loss1/conv_b"
    lr_mult: 2
    decay_mult: 0
  }
  convolution_param {
    num_output: 128
    kernel_size: 1
    weight_filler {
      type: "xavier"
    }
    bias_filler {
      type: "constant"
      value: 0.2
    }
  }
}
layer {
  name: "loss1/relu_conv"
  type: "ReLU"
  bottom: "loss1/conv"
  top: "loss1/conv"
}
layer {
  name: "loss1/fc"
  type: "InnerProduct"
  bottom: "loss1/conv"
  top: "loss1/fc"
  param {
  name: "loss1/fc_w"
    lr_mult: 1
    decay_mult: 1
  }
  param {
  name: "loss1/fc_b"
    lr_mult: 2
    decay_mult: 0
  }
  inner_product_param {
    num_output: 1024
    weight_filler {
      type: "xavier"
    }
    bias_filler {
      type: "constant"
      value: 0.2
    }
  }
}
layer {
  name: "loss1/relu_fc"
  type: "ReLU"
  bottom: "loss1/fc"
  top: "loss1/fc"
}
layer {
  name: "loss1/drop_fc"
  type: "Dropout"
  bottom: "loss1/fc"
  top: "loss1/fc"
  dropout_param {
    dropout_ratio: 0.7
  }
}
layer {
  name: "loss1/classifierCustom"
  type: "InnerProduct"
  bottom: "loss1/fc"
  top: "loss1/classifierCustom"
  param {
  name: "loss1/classifierCustom_w"
    lr_mult: 1
    decay_mult: 1
  }
  param {
  name: "loss1/classifierCustom_b"
    lr_mult: 2
    decay_mult: 0
  }
  inner_product_param {
    num_output: 1000
    weight_filler {
      type: "xavier"
    }
    bias_filler {
      type: "constant"
      value: 0
    }
  }
}

layer {
  name: "relu1"
  type: "ReLU"
  bottom: "loss1/classifierCustom"
  top: "loss1/classifierCustom"
}

layer {
  name: "denom1"
  type: "Reduction"
  bottom: "loss1/classifierCustom"
  top: "denom1"
  reduction_param {
    operation: SUMSQ
    axis: 1
  }
}
layer {
  name: "power1"
  type: "Power"
  bottom: "denom1"
  top: "power1"
  power_param {
    power: -0.5
    shift: 9.99999996004e-13
  }
}
layer {
  name: "reshape1"
  type: "Reshape"
  bottom: "power1"
  top: "reshape1"
  reshape_param {
    shape {
      dim: 1
    }
    axis: -1
    num_axes: 0
  }
}
layer {
  name: "tile1"
  type: "Tile"
  bottom: "reshape1"
  top: "tile1"
  tile_param {
    axis: 1
    tiles: 1000
  }
}
layer {
  name: "elwise1"
  type: "Eltwise"
  bottom: "loss1/classifierCustom"
  bottom: "tile1"
  top: "elwise1"
  eltwise_param {
    operation: PROD
  }
}



layer {
  name: "inception_4b/1x1"
  type: "Convolution"
  bottom: "inception_4a/output"
  top: "inception_4b/1x1"
  param {
  name: "inception_4b/1x1_w"
    lr_mult: 1
    decay_mult: 1
  }
  param {
  name: "inception_4b/1x1_b"
    lr_mult: 2
    decay_mult: 0
  }
  convolution_param {
    num_output: 160
    kernel_size: 1
    weight_filler {
      type: "xavier"
    }
    bias_filler {
      type: "constant"
      value: 0.2
    }
  }
}
layer {
  name: "inception_4b/relu_1x1"
  type: "ReLU"
  bottom: "inception_4b/1x1"
  top: "inception_4b/1x1"
}
layer {
  name: "inception_4b/3x3_reduce"
  type: "Convolution"
  bottom: "inception_4a/output"
  top: "inception_4b/3x3_reduce"
  param {
  name: "inception_4b/3x3_reduce_w"
    lr_mult: 1
    decay_mult: 1
  }
  param {
  name: "inception_4b/3x3_reduce_b"
    lr_mult: 2
    decay_mult: 0
  }
  convolution_param {
    num_output: 112
    kernel_size: 1
    weight_filler {
      type: "xavier"
    }
    bias_filler {
      type: "constant"
      value: 0.2
    }
  }
}
layer {
  name: "inception_4b/relu_3x3_reduce"
  type: "ReLU"
  bottom: "inception_4b/3x3_reduce"
  top: "inception_4b/3x3_reduce"
}
layer {
  name: "inception_4b/3x3"
  type: "Convolution"
  bottom: "inception_4b/3x3_reduce"
  top: "inception_4b/3x3"
  param {
  name: "inception_4b/3x3_w"
    lr_mult: 1
    decay_mult: 1
  }
  param {
  name: "inception_4b/3x3_b"
    lr_mult: 2
    decay_mult: 0
  }
  convolution_param {
    num_output: 224
    pad: 1
    kernel_size: 3
    weight_filler {
      type: "xavier"
    }
    bias_filler {
      type: "constant"
      value: 0.2
    }
  }
}
layer {
  name: "inception_4b/relu_3x3"
  type: "ReLU"
  bottom: "inception_4b/3x3"
  top: "inception_4b/3x3"
}
layer {
  name: "inception_4b/5x5_reduce"
  type: "Convolution"
  bottom: "inception_4a/output"
  top: "inception_4b/5x5_reduce"
  param {
  name: "inception_4b/5x5_reduce_w"
    lr_mult: 1
    decay_mult: 1
  }
  param {
  name: "inception_4b/5x5_reduce_b"
    lr_mult: 2
    decay_mult: 0
  }
  convolution_param {
    num_output: 24
    kernel_size: 1
    weight_filler {
      type: "xavier"
    }
    bias_filler {
      type: "constant"
      value: 0.2
    }
  }
}
layer {
  name: "inception_4b/relu_5x5_reduce"
  type: "ReLU"
  bottom: "inception_4b/5x5_reduce"
  top: "inception_4b/5x5_reduce"
}
layer {
  name: "inception_4b/5x5"
  type: "Convolution"
  bottom: "inception_4b/5x5_reduce"
  top: "inception_4b/5x5"
  param {
  name: "inception_4b/5x5_w"
    lr_mult: 1
    decay_mult: 1
  }
  param {
  name: "inception_4b/5x5_b"
    lr_mult: 2
    decay_mult: 0
  }
  convolution_param {
    num_output: 64
    pad: 2
    kernel_size: 5
    weight_filler {
      type: "xavier"
    }
    bias_filler {
      type: "constant"
      value: 0.2
    }
  }
}
layer {
  name: "inception_4b/relu_5x5"
  type: "ReLU"
  bottom: "inception_4b/5x5"
  top: "inception_4b/5x5"
}
layer {
  name: "inception_4b/pool"
  type: "Pooling"
  bottom: "inception_4a/output"
  top: "inception_4b/pool"
  pooling_param {
    pool: MAX
    kernel_size: 3
    stride: 1
    pad: 1
  }
}
layer {
  name: "inception_4b/pool_proj"
  type: "Convolution"
  bottom: "inception_4b/pool"
  top: "inception_4b/pool_proj"
  param {
  name: "inception_4b/pool_proj_w"
    lr_mult: 1
    decay_mult: 1
  }
  param {
  name: "inception_4b/pool_proj_b"
    lr_mult: 2
    decay_mult: 0
  }
  convolution_param {
    num_output: 64
    kernel_size: 1
    weight_filler {
      type: "xavier"
    }
    bias_filler {
      type: "constant"
      value: 0.2
    }
  }
}
layer {
  name: "inception_4b/relu_pool_proj"
  type: "ReLU"
  bottom: "inception_4b/pool_proj"
  top: "inception_4b/pool_proj"
}
layer {
  name: "inception_4b/output"
  type: "Concat"
  bottom: "inception_4b/1x1"
  bottom: "inception_4b/3x3"
  bottom: "inception_4b/5x5"
  bottom: "inception_4b/pool_proj"
  top: "inception_4b/output"
}
layer {
  name: "inception_4c/1x1"
  type: "Convolution"
  bottom: "inception_4b/output"
  top: "inception_4c/1x1"
  param {
  name: "inception_4c/1x1_w"
    lr_mult: 1
    decay_mult: 2
  }
  param {
  name: "inception_4c/1x1_b"
    lr_mult: 2
    decay_mult: 0
  }
  convolution_param {
    num_output: 128
    kernel_size: 1
    weight_filler {
      type: "xavier"
    }
    bias_filler {
      type: "constant"
      value: 0.2
    }
  }
}
layer {
  name: "inception_4c/relu_1x1"
  type: "ReLU"
  bottom: "inception_4c/1x1"
  top: "inception_4c/1x1"
}
layer {
  name: "inception_4c/3x3_reduce"
  type: "Convolution"
  bottom: "inception_4b/output"
  top: "inception_4c/3x3_reduce"
  param {
  name: "inception_4c/3x3_reduce_w"
    lr_mult: 1
    decay_mult: 1
  }
  param {
  name: "inception_4c/3x3_reduce_b"
    lr_mult: 2
    decay_mult: 0
  }
  convolution_param {
    num_output: 128
    kernel_size: 1
    weight_filler {
      type: "xavier"
    }
    bias_filler {
      type: "constant"
      value: 0.2
    }
  }
}
layer {
  name: "inception_4c/relu_3x3_reduce"
  type: "ReLU"
  bottom: "inception_4c/3x3_reduce"
  top: "inception_4c/3x3_reduce"
}
layer {
  name: "inception_4c/3x3"
  type: "Convolution"
  bottom: "inception_4c/3x3_reduce"
  top: "inception_4c/3x3"
  param {
  name: "inception_4c/3x3_w"
    lr_mult: 1
    decay_mult: 1
  }
  param {
  name: "inception_4c/3x3_b"
    lr_mult: 2
    decay_mult: 0
  }
  convolution_param {
    num_output: 256
    pad: 1
    kernel_size: 3
    weight_filler {
      type: "xavier"
    }
    bias_filler {
      type: "constant"
      value: 0.2
    }
  }
}
layer {
  name: "inception_4c/relu_3x3"
  type: "ReLU"
  bottom: "inception_4c/3x3"
  top: "inception_4c/3x3"
}
layer {
  name: "inception_4c/5x5_reduce"
  type: "Convolution"
  bottom: "inception_4b/output"
  top: "inception_4c/5x5_reduce"
  param {
  name: "inception_4c/5x5_reduce_w"
    lr_mult: 1
    decay_mult: 1
  }
  param {
  name: "inception_4c/5x5_reduce_b"
    lr_mult: 2
    decay_mult: 0
  }
  convolution_param {
    num_output: 24
    kernel_size: 1
    weight_filler {
      type: "xavier"
    }
    bias_filler {
      type: "constant"
      value: 0.2
    }
  }
}
layer {
  name: "inception_4c/relu_5x5_reduce"
  type: "ReLU"
  bottom: "inception_4c/5x5_reduce"
  top: "inception_4c/5x5_reduce"
}
layer {
  name: "inception_4c/5x5"
  type: "Convolution"
  bottom: "inception_4c/5x5_reduce"
  top: "inception_4c/5x5"
  param {
  name: "inception_4c/5x5_w"
    lr_mult: 1
    decay_mult: 1
  }
  param {
  name: "inception_4c/5x5_b"
    lr_mult: 2
    decay_mult: 0
  }
  convolution_param {
    num_output: 64
    pad: 2
    kernel_size: 5
    weight_filler {
      type: "xavier"
    }
    bias_filler {
      type: "constant"
      value: 0.2
    }
  }
}
layer {
  name: "inception_4c/relu_5x5"
  type: "ReLU"
  bottom: "inception_4c/5x5"
  top: "inception_4c/5x5"
}
layer {
  name: "inception_4c/pool"
  type: "Pooling"
  bottom: "inception_4b/output"
  top: "inception_4c/pool"
  pooling_param {
    pool: MAX
    kernel_size: 3
    stride: 1
    pad: 1
  }
}
layer {
  name: "inception_4c/pool_proj"
  type: "Convolution"
  bottom: "inception_4c/pool"
  top: "inception_4c/pool_proj"
  param {
  name: "inception_4c/pool_proj_w"
    lr_mult: 1
    decay_mult: 1
  }
  param {
  name: "inception_4c/pool_proj_b"
    lr_mult: 2
    decay_mult: 0
  }
  convolution_param {
    num_output: 64
    kernel_size: 1
    weight_filler {
      type: "xavier"
    }
    bias_filler {
      type: "constant"
      value: 0.2
    }
  }
}
layer {
  name: "inception_4c/relu_pool_proj"
  type: "ReLU"
  bottom: "inception_4c/pool_proj"
  top: "inception_4c/pool_proj"
}
layer {
  name: "inception_4c/output"
  type: "Concat"
  bottom: "inception_4c/1x1"
  bottom: "inception_4c/3x3"
  bottom: "inception_4c/5x5"
  bottom: "inception_4c/pool_proj"
  top: "inception_4c/output"
}
layer {
  name: "inception_4d/1x1"
  type: "Convolution"
  bottom: "inception_4c/output"
  top: "inception_4d/1x1"
  param {
  name: "inception_4d/1x1_w"
    lr_mult: 1
    decay_mult: 1
  }
  param {
  name: "inception_4d/1x1_b"
    lr_mult: 2
    decay_mult: 0
  }
  convolution_param {
    num_output: 112
    kernel_size: 1
    weight_filler {
      type: "xavier"
    }
    bias_filler {
      type: "constant"
      value: 0.2
    }
  }
}
layer {
  name: "inception_4d/relu_1x1"
  type: "ReLU"
  bottom: "inception_4d/1x1"
  top: "inception_4d/1x1"
}
layer {
  name: "inception_4d/3x3_reduce"
  type: "Convolution"
  bottom: "inception_4c/output"
  top: "inception_4d/3x3_reduce"
  param {
  name: "inception_4d/3x3_reduce_w"
    lr_mult: 1
    decay_mult: 1
  }
  param {
  name: "inception_4d/3x3_reduce_b"
    lr_mult: 2
    decay_mult: 0
  }
  convolution_param {
    num_output: 144
    kernel_size: 1
    weight_filler {
      type: "xavier"
    }
    bias_filler {
      type: "constant"
      value: 0.2
    }
  }
}
layer {
  name: "inception_4d/relu_3x3_reduce"
  type: "ReLU"
  bottom: "inception_4d/3x3_reduce"
  top: "inception_4d/3x3_reduce"
}
layer {
  name: "inception_4d/3x3"
  type: "Convolution"
  bottom: "inception_4d/3x3_reduce"
  top: "inception_4d/3x3"
  param {
  name: "inception_4d/3x3_w"
    lr_mult: 1
    decay_mult: 1
  }
  param {
  name: "inception_4d/3x3_b"
    lr_mult: 2
    decay_mult: 0
  }
  convolution_param {
    num_output: 288
    pad: 1
    kernel_size: 3
    weight_filler {
      type: "xavier"
    }
    bias_filler {
      type: "constant"
      value: 0.2
    }
  }
}
layer {
  name: "inception_4d/relu_3x3"
  type: "ReLU"
  bottom: "inception_4d/3x3"
  top: "inception_4d/3x3"
}
layer {
  name: "inception_4d/5x5_reduce"
  type: "Convolution"
  bottom: "inception_4c/output"
  top: "inception_4d/5x5_reduce"
  param {
  name: "inception_4d/5x5_reduce_w"
    lr_mult: 1
    decay_mult: 1
  }
  param {
  name: "inception_4d/5x5_reduce_b"
    lr_mult: 2
    decay_mult: 0
  }
  convolution_param {
    num_output: 32
    kernel_size: 1
    weight_filler {
      type: "xavier"
    }
    bias_filler {
      type: "constant"
      value: 0.2
    }
  }
}
layer {
  name: "inception_4d/relu_5x5_reduce"
  type: "ReLU"
  bottom: "inception_4d/5x5_reduce"
  top: "inception_4d/5x5_reduce"
}
layer {
  name: "inception_4d/5x5"
  type: "Convolution"
  bottom: "inception_4d/5x5_reduce"
  top: "inception_4d/5x5"
  param {
  name: "inception_4d/5x5_w"
    lr_mult: 1
    decay_mult: 1
  }
  param {
  name: "inception_4d/5x5_b"
    lr_mult: 2
    decay_mult: 0
  }
  convolution_param {
    num_output: 64
    pad: 2
    kernel_size: 5
    weight_filler {
      type: "xavier"
    }
    bias_filler {
      type: "constant"
      value: 0.2
    }
  }
}
layer {
  name: "inception_4d/relu_5x5"
  type: "ReLU"
  bottom: "inception_4d/5x5"
  top: "inception_4d/5x5"
}
layer {
  name: "inception_4d/pool"
  type: "Pooling"
  bottom: "inception_4c/output"
  top: "inception_4d/pool"
  pooling_param {
    pool: MAX
    kernel_size: 3
    stride: 1
    pad: 1
  }
}
layer {
  name: "inception_4d/pool_proj"
  type: "Convolution"
  bottom: "inception_4d/pool"
  top: "inception_4d/pool_proj"
  param {
  name: "inception_4d/pool_proj_w"
    lr_mult: 1
    decay_mult: 1
  }
  param {
  name: "inception_4d/pool_proj_b"
    lr_mult: 2
    decay_mult: 0
  }
  convolution_param {
    num_output: 64
    kernel_size: 1
    weight_filler {
      type: "xavier"
    }
    bias_filler {
      type: "constant"
      value: 0.2
    }
  }
}
layer {
  name: "inception_4d/relu_pool_proj"
  type: "ReLU"
  bottom: "inception_4d/pool_proj"
  top: "inception_4d/pool_proj"
}
layer {
  name: "inception_4d/output"
  type: "Concat"
  bottom: "inception_4d/1x1"
  bottom: "inception_4d/3x3"
  bottom: "inception_4d/5x5"
  bottom: "inception_4d/pool_proj"
  top: "inception_4d/output"
}


# -- PREPROCESSING FOR LOSS 2

layer {
  name: "loss2/ave_pool"
  type: "Pooling"
  bottom: "inception_4d/output"
  top: "loss2/ave_pool"
  pooling_param {
    pool: AVE
    kernel_size: 5
    stride: 3
  }
}
layer {
  name: "loss2/conv"
  type: "Convolution"
  bottom: "loss2/ave_pool"
  top: "loss2/conv"
  param {
  name: "loss2/conv_w"
    lr_mult: 1
    decay_mult: 1
  }
  param {
  name: "loss2/conv_b"
    lr_mult: 2
    decay_mult: 0
  }
  convolution_param {
    num_output: 128
    kernel_size: 1
    weight_filler {
      type: "xavier"
    }
    bias_filler {
      type: "constant"
      value: 0.2
    }
  }
}
layer {
  name: "loss2/relu_conv"
  type: "ReLU"
  bottom: "loss2/conv"
  top: "loss2/conv"
}
layer {
  name: "loss2/fc"
  type: "InnerProduct"
  bottom: "loss2/conv"
  top: "loss2/fc"
  param {
  name: "loss2/fc_w"
    lr_mult: 1
    decay_mult: 1
  }
  param {
  name: "loss2/fc_b"
    lr_mult: 2
    decay_mult: 0
  }
  inner_product_param {
    num_output: 1024
    weight_filler {
      type: "xavier"
    }
    bias_filler {
      type: "constant"
      value: 0.2
    }
  }
}
layer {
  name: "loss2/relu_fc"
  type: "ReLU"
  bottom: "loss2/fc"
  top: "loss2/fc"
}
layer {
  name: "loss2/drop_fc"
  type: "Dropout"
  bottom: "loss2/fc"
  top: "loss2/fc"
  dropout_param {
    dropout_ratio: 0.7
  }
}
layer {
  name: "loss2/classifierCustom"
  type: "InnerProduct"
  bottom: "loss2/fc"
  top: "loss2/classifierCustom"
  param {
  name: "loss2/classifierCustom_w"
    lr_mult: 1
    decay_mult: 1
  }
  param {
  name: "loss2/classifierCustom_b"
    lr_mult: 2
    decay_mult: 0
  }
  inner_product_param {
    num_output: 1000
    weight_filler {
      type: "xavier"
    }
    bias_filler {
      type: "constant"
      value: 0
    }
  }
}


layer {
  name: "relu2"
  type: "ReLU"
  bottom: "loss2/classifierCustom"
  top: "loss2/classifierCustom"
}

layer {
  name: "denom2"
  type: "Reduction"
  bottom: "loss2/classifierCustom"
  top: "denom2"
  reduction_param {
    operation: SUMSQ
    axis: 1
  }
}
layer {
  name: "power2"
  type: "Power"
  bottom: "denom2"
  top: "power2"
  power_param {
    power: -0.5
    shift: 9.99999996004e-13
  }
}
layer {
  name: "reshape2"
  type: "Reshape"
  bottom: "power2"
  top: "reshape2"
  reshape_param {
    shape {
      dim: 1
    }
    axis: -1
    num_axes: 0
  }
}
layer {
  name: "tile2"
  type: "Tile"
  bottom: "reshape2"
  top: "tile2"
  tile_param {
    axis: 1
    tiles: 1000
  }
}
layer {
  name: "elwise2"
  type: "Eltwise"
  bottom: "loss2/classifierCustom"
  bottom: "tile2"
  top: "elwise2"
  eltwise_param {
    operation: PROD
  }
}



layer {
  name: "inception_4e/1x1"
  type: "Convolution"
  bottom: "inception_4d/output"
  top: "inception_4e/1x1"
  param {
  name: "inception_4e/1x1_w"
    lr_mult: 1
    decay_mult: 1
  }
  param {
  name: "inception_4e/1x1_b"
    lr_mult: 2
    decay_mult: 0
  }
  convolution_param {
    num_output: 256
    kernel_size: 1
    weight_filler {
      type: "xavier"
    }
    bias_filler {
      type: "constant"
      value: 0.2
    }
  }
}
layer {
  name: "inception_4e/relu_1x1"
  type: "ReLU"
  bottom: "inception_4e/1x1"
  top: "inception_4e/1x1"
}
layer {
  name: "inception_4e/3x3_reduce"
  type: "Convolution"
  bottom: "inception_4d/output"
  top: "inception_4e/3x3_reduce"
  param {
  name: "inception_4e/3x3_reduce_w"
    lr_mult: 1
    decay_mult: 1
  }
  param {
  name: "inception_4e/3x3_reduce_b"
    lr_mult: 2
    decay_mult: 0
  }
  convolution_param {
    num_output: 160
    kernel_size: 1
    weight_filler {
      type: "xavier"
    }
    bias_filler {
      type: "constant"
      value: 0.2
    }
  }
}
layer {
  name: "inception_4e/relu_3x3_reduce"
  type: "ReLU"
  bottom: "inception_4e/3x3_reduce"
  top: "inception_4e/3x3_reduce"
}
layer {
  name: "inception_4e/3x3"
  type: "Convolution"
  bottom: "inception_4e/3x3_reduce"
  top: "inception_4e/3x3"
  param {
  name: "inception_4e/3x3_w"
    lr_mult: 1
    decay_mult: 1
  }
  param {
  name: "inception_4e/3x3_b"
    lr_mult: 2
    decay_mult: 0
  }
  convolution_param {
    num_output: 320
    pad: 1
    kernel_size: 3
    weight_filler {
      type: "xavier"
    }
    bias_filler {
      type: "constant"
      value: 0.2
    }
  }
}
layer {
  name: "inception_4e/relu_3x3"
  type: "ReLU"
  bottom: "inception_4e/3x3"
  top: "inception_4e/3x3"
}
layer {
  name: "inception_4e/5x5_reduce"
  type: "Convolution"
  bottom: "inception_4d/output"
  top: "inception_4e/5x5_reduce"
  param {
  name: "inception_4e/5x5_reduce_w"
    lr_mult: 1
    decay_mult: 1
  }
  param {
  name: "inception_4e/5x5_reduce_b"
    lr_mult: 2
    decay_mult: 0
  }
  convolution_param {
    num_output: 32
    kernel_size: 1
    weight_filler {
      type: "xavier"
    }
    bias_filler {
      type: "constant"
      value: 0.2
    }
  }
}
layer {
  name: "inception_4e/relu_5x5_reduce"
  type: "ReLU"
  bottom: "inception_4e/5x5_reduce"
  top: "inception_4e/5x5_reduce"
}
layer {
  name: "inception_4e/5x5"
  type: "Convolution"
  bottom: "inception_4e/5x5_reduce"
  top: "inception_4e/5x5"
  param {
  name: "inception_4e/5x5_w"
    lr_mult: 1
    decay_mult: 1
  }
  param {
  name: "inception_4e/5x5_b"
    lr_mult: 2
    decay_mult: 0
  }
  convolution_param {
    num_output: 128
    pad: 2
    kernel_size: 5
    weight_filler {
      type: "xavier"
    }
    bias_filler {
      type: "constant"
      value: 0.2
    }
  }
}
layer {
  name: "inception_4e/relu_5x5"
  type: "ReLU"
  bottom: "inception_4e/5x5"
  top: "inception_4e/5x5"
}
layer {
  name: "inception_4e/pool"
  type: "Pooling"
  bottom: "inception_4d/output"
  top: "inception_4e/pool"
  pooling_param {
    pool: MAX
    kernel_size: 3
    stride: 1
    pad: 1
  }
}
layer {
  name: "inception_4e/pool_proj"
  type: "Convolution"
  bottom: "inception_4e/pool"
  top: "inception_4e/pool_proj"
  param {
  name: "inception_4e/pool_proj_w"
    lr_mult: 1
    decay_mult: 1
  }
  param {
  name: "inception_4e/pool_proj_b"
    lr_mult: 2
    decay_mult: 0
  }
  convolution_param {
    num_output: 128
    kernel_size: 1
    weight_filler {
      type: "xavier"
    }
    bias_filler {
      type: "constant"
      value: 0.2
    }
  }
}
layer {
  name: "inception_4e/relu_pool_proj"
  type: "ReLU"
  bottom: "inception_4e/pool_proj"
  top: "inception_4e/pool_proj"
}
layer {
  name: "inception_4e/output"
  type: "Concat"
  bottom: "inception_4e/1x1"
  bottom: "inception_4e/3x3"
  bottom: "inception_4e/5x5"
  bottom: "inception_4e/pool_proj"
  top: "inception_4e/output"
}
layer {
  name: "pool4/3x3_s2"
  type: "Pooling"
  bottom: "inception_4e/output"
  top: "pool4/3x3_s2"
  pooling_param {
    pool: MAX
    kernel_size: 3
    stride: 2
  }
}
layer {
  name: "inception_5a/1x1"
  type: "Convolution"
  bottom: "pool4/3x3_s2"
  top: "inception_5a/1x1"
  param {
  name: "inception_5a/1x1_w"
    lr_mult: 1
    decay_mult: 1
  }
  param {
  name: "inception_5a/1x1_b"
    lr_mult: 2
    decay_mult: 0
  }
  convolution_param {
    num_output: 256
    kernel_size: 1
    weight_filler {
      type: "xavier"
    }
    bias_filler {
      type: "constant"
      value: 0.2
    }
  }
}
layer {
  name: "inception_5a/relu_1x1"
  type: "ReLU"
  bottom: "inception_5a/1x1"
  top: "inception_5a/1x1"
}
layer {
  name: "inception_5a/3x3_reduce"
  type: "Convolution"
  bottom: "pool4/3x3_s2"
  top: "inception_5a/3x3_reduce"
  param {
  name: "inception_5a/3x3_reduce_w"
    lr_mult: 1
    decay_mult: 1
  }
  param {
  name: "inception_5a/3x3_reduce_b"
    lr_mult: 2
    decay_mult: 0
  }
  convolution_param {
    num_output: 160
    kernel_size: 1
    weight_filler {
      type: "xavier"
    }
    bias_filler {
      type: "constant"
      value: 0.2
    }
  }
}
layer {
  name: "inception_5a/relu_3x3_reduce"
  type: "ReLU"
  bottom: "inception_5a/3x3_reduce"
  top: "inception_5a/3x3_reduce"
}
layer {
  name: "inception_5a/3x3"
  type: "Convolution"
  bottom: "inception_5a/3x3_reduce"
  top: "inception_5a/3x3"
  param {
  name: "inception_5a/3x3_w"
    lr_mult: 1
    decay_mult: 1
  }
  param {
  name: "inception_5a/3x3_b"
    lr_mult: 2
    decay_mult: 0
  }
  convolution_param {
    num_output: 320
    pad: 1
    kernel_size: 3
    weight_filler {
      type: "xavier"
    }
    bias_filler {
      type: "constant"
      value: 0.2
    }
  }
}
layer {
  name: "inception_5a/relu_3x3"
  type: "ReLU"
  bottom: "inception_5a/3x3"
  top: "inception_5a/3x3"
}
layer {
  name: "inception_5a/5x5_reduce"
  type: "Convolution"
  bottom: "pool4/3x3_s2"
  top: "inception_5a/5x5_reduce"
  param {
  name: "inception_5a/5x5_reduce_w"
    lr_mult: 1
    decay_mult: 1
  }
  param {
  name: "inception_5a/5x5_reduce_b"
    lr_mult: 2
    decay_mult: 0
  }
  convolution_param {
    num_output: 32
    kernel_size: 1
    weight_filler {
      type: "xavier"
    }
    bias_filler {
      type: "constant"
      value: 0.2
    }
  }
}
layer {
  name: "inception_5a/relu_5x5_reduce"
  type: "ReLU"
  bottom: "inception_5a/5x5_reduce"
  top: "inception_5a/5x5_reduce"
}
layer {
  name: "inception_5a/5x5"
  type: "Convolution"
  bottom: "inception_5a/5x5_reduce"
  top: "inception_5a/5x5"
  param {
  name: "inception_5a/5x5_1"
    lr_mult: 1
    decay_mult: 1
  }
  param {
  name: "inception_5a/5x5_b"
    lr_mult: 2
    decay_mult: 0
  }
  convolution_param {
    num_output: 128
    pad: 2
    kernel_size: 5
    weight_filler {
      type: "xavier"
    }
    bias_filler {
      type: "constant"
      value: 0.2
    }
  }
}
layer {
  name: "inception_5a/relu_5x5"
  type: "ReLU"
  bottom: "inception_5a/5x5"
  top: "inception_5a/5x5"
}
layer {
  name: "inception_5a/pool"
  type: "Pooling"
  bottom: "pool4/3x3_s2"
  top: "inception_5a/pool"
  pooling_param {
    pool: MAX
    kernel_size: 3
    stride: 1
    pad: 1
  }
}
layer {
  name: "inception_5a/pool_proj"
  type: "Convolution"
  bottom: "inception_5a/pool"
  top: "inception_5a/pool_proj"
  param {
  name: "inception_5a/pool_proj_w"
    lr_mult: 1
    decay_mult: 1
  }
  param {
  name: "inception_5a/pool_proj_b"
    lr_mult: 2
    decay_mult: 0
  }
  convolution_param {
    num_output: 128
    kernel_size: 1
    weight_filler {
      type: "xavier"
    }
    bias_filler {
      type: "constant"
      value: 0.2
    }
  }
}
layer {
  name: "inception_5a/relu_pool_proj"
  type: "ReLU"
  bottom: "inception_5a/pool_proj"
  top: "inception_5a/pool_proj"
}
layer {
  name: "inception_5a/output"
  type: "Concat"
  bottom: "inception_5a/1x1"
  bottom: "inception_5a/3x3"
  bottom: "inception_5a/5x5"
  bottom: "inception_5a/pool_proj"
  top: "inception_5a/output"
}
layer {
  name: "inception_5b/1x1"
  type: "Convolution"
  bottom: "inception_5a/output"
  top: "inception_5b/1x1"
  param {
  name: "inception_5b/1x1_w"
    lr_mult: 1
    decay_mult: 1
  }
  param {
  name: "inception_5b/1x1_b"
    lr_mult: 2
    decay_mult: 0
  }
  convolution_param {
    num_output: 384
    kernel_size: 1
    weight_filler {
      type: "xavier"
    }
    bias_filler {
      type: "constant"
      value: 0.2
    }
  }
}
layer {
  name: "inception_5b/relu_1x1"
  type: "ReLU"
  bottom: "inception_5b/1x1"
  top: "inception_5b/1x1"
}
layer {
  name: "inception_5b/3x3_reduce"
  type: "Convolution"
  bottom: "inception_5a/output"
  top: "inception_5b/3x3_reduce"
  param {
  name: "inception_5b/3x3_reduce_w"
    lr_mult: 1
    decay_mult: 1
  }
  param {
  name: "inception_5b/3x3_reduce_b"
    lr_mult: 2
    decay_mult: 0
  }
  convolution_param {
    num_output: 192
    kernel_size: 1
    weight_filler {
      type: "xavier"
    }
    bias_filler {
      type: "constant"
      value: 0.2
    }
  }
}
layer {
  name: "inception_5b/relu_3x3_reduce"
  type: "ReLU"
  bottom: "inception_5b/3x3_reduce"
  top: "inception_5b/3x3_reduce"
}
layer {
  name: "inception_5b/3x3"
  type: "Convolution"
  bottom: "inception_5b/3x3_reduce"
  top: "inception_5b/3x3"
  param {
  name: "inception_5b/3x3_w"
    lr_mult: 1
    decay_mult: 1
  }
  param {
  name: "inception_5b/3x3_b"
    lr_mult: 2
    decay_mult: 0
  }
  convolution_param {
    num_output: 384
    pad: 1
    kernel_size: 3
    weight_filler {
      type: "xavier"
    }
    bias_filler {
      type: "constant"
      value: 0.2
    }
  }
}
layer {
  name: "inception_5b/relu_3x3"
  type: "ReLU"
  bottom: "inception_5b/3x3"
  top: "inception_5b/3x3"
}
layer {
  name: "inception_5b/5x5_reduce"
  type: "Convolution"
  bottom: "inception_5a/output"
  top: "inception_5b/5x5_reduce"
  param {
  name: "inception_5b/5x5_reduce_w"
    lr_mult: 1
    decay_mult: 1
  }
  param {
  name: "inception_5b/5x5_reduce_b"
    lr_mult: 2
    decay_mult: 0
  }
  convolution_param {
    num_output: 48
    kernel_size: 1
    weight_filler {
      type: "xavier"
    }
    bias_filler {
      type: "constant"
      value: 0.2
    }
  }
}
layer {
  name: "inception_5b/relu_5x5_reduce"
  type: "ReLU"
  bottom: "inception_5b/5x5_reduce"
  top: "inception_5b/5x5_reduce"
}
layer {
  name: "inception_5b/5x5"
  type: "Convolution"
  bottom: "inception_5b/5x5_reduce"
  top: "inception_5b/5x5"
  param {
  name: "inception_5b/5x5_w"
    lr_mult: 1
    decay_mult: 1
  }
  param {
  name: "inception_5b/5x5_b"
    lr_mult: 2
    decay_mult: 0
  }
  convolution_param {
    num_output: 128
    pad: 2
    kernel_size: 5
    weight_filler {
      type: "xavier"
    }
    bias_filler {
      type: "constant"
      value: 0.2
    }
  }
}
layer {
  name: "inception_5b/relu_5x5"
  type: "ReLU"
  bottom: "inception_5b/5x5"
  top: "inception_5b/5x5"
}
layer {
  name: "inception_5b/pool"
  type: "Pooling"
  bottom: "inception_5a/output"
  top: "inception_5b/pool"
  pooling_param {
    pool: MAX
    kernel_size: 3
    stride: 1
    pad: 1
  }
}
layer {
  name: "inception_5b/pool_proj"
  type: "Convolution"
  bottom: "inception_5b/pool"
  top: "inception_5b/pool_proj"
  param {
  name: "inception_5b/pool_proj_w"
    lr_mult: 1
    decay_mult: 1
  }
  param {
  name: "inception_5b/pool_proj_b"
    lr_mult: 2
    decay_mult: 0
  }
  convolution_param {
    num_output: 128
    kernel_size: 1
    weight_filler {
      type: "xavier"
    }
    bias_filler {
      type: "constant"
      value: 0.2
    }
  }
}
layer {
  name: "inception_5b/relu_pool_proj"
  type: "ReLU"
  bottom: "inception_5b/pool_proj"
  top: "inception_5b/pool_proj"
}
layer {
  name: "inception_5b/output"
  type: "Concat"
  bottom: "inception_5b/1x1"
  bottom: "inception_5b/3x3"
  bottom: "inception_5b/5x5"
  bottom: "inception_5b/pool_proj"
  top: "inception_5b/output"
}
layer {
  name: "pool5/7x7_s1"
  type: "Pooling"
  bottom: "inception_5b/output"
  top: "pool5/7x7_s1"
  pooling_param {
    pool: AVE
    kernel_size: 7
    stride: 1
  }
}
layer {
  name: "pool5/drop_7x7_s1"
  type: "Dropout"
  bottom: "pool5/7x7_s1"
  top: "pool5/7x7_s1"
  dropout_param {
    dropout_ratio: 0.4
  }
}

# -- PREPROCESSING FOR LOSS 3

layer {
  name: "loss3/classifierCustom"
  type: "InnerProduct"
  bottom: "pool5/7x7_s1"
  top: "loss3/classifierCustom"
  param {
  name: "loss3/classifierCustom_w"
    lr_mult: 1
    decay_mult: 1
  }
  param {
  name: "loss3/classifierCustom_b"
    lr_mult: 2
    decay_mult: 0
  }
  inner_product_param {
    num_output: 1000
    weight_filler {
      type: "xavier"
    }
    bias_filler {
      type: "constant"
      value: 0
    }
  }
}


layer {
  name: "relu3"
  type: "ReLU"
  bottom: "loss3/classifierCustom"
  top: "loss3/classifierCustom"
}

layer {
  name: "denom3"
  type: "Reduction"
  bottom: "loss3/classifierCustom"
  top: "denom3"
  reduction_param {
    operation: SUMSQ
    axis: 1
  }
}
layer {
  name: "power3"
  type: "Power"
  bottom: "denom3"
  top: "power3"
  power_param {
    power: -0.5
    shift: 9.99999996004e-13
  }
}
layer {
  name: "reshape3"
  type: "Reshape"
  bottom: "power3"
  top: "reshape3"
  reshape_param {
    shape {
      dim: 1
    }
    axis: -1
    num_axes: 0
  }
}
layer {
  name: "tile3"
  type: "Tile"
  bottom: "reshape3"
  top: "tile3"
  tile_param {
    axis: 1
    tiles: 1000
  }
}
layer {
  name: "elwise3"
  type: "Eltwise"
  bottom: "loss3/classifierCustom"
  bottom: "tile3"
  top: "elwise3"
  eltwise_param {
    operation: PROD
  }
}


# -- NET POSITIVE IMAGE

layer {
  name: "conv1/7x7_s2_pos"
  type: "Convolution"
  bottom: "im_pos"
  top: "conv1/7x7_s2_pos"
  param {
    name: "conv1/7x7_s2_w"
    lr_mult: 1
    decay_mult: 1
  }
  param {
    name: "conv1/7x7_s2_b"
    lr_mult: 2
    decay_mult: 0
  }
  convolution_param {
    num_output: 64
    pad: 3
    kernel_size: 7
    stride: 2
    weight_filler {
      type: "xavier"
    }
    bias_filler {
      type: "constant"
      value: 0.2
    }
  }
}
layer {
  name: "conv1/relu_7x7_pos"
  type: "ReLU"
  bottom: "conv1/7x7_s2_pos"
  top: "conv1/7x7_s2_pos"
}
layer {
  name: "pool1/3x3_s2_pos"
  type: "Pooling"
  bottom: "conv1/7x7_s2_pos"
  top: "pool1/3x3_s2_pos"
  pooling_param {
    pool: MAX
    kernel_size: 3
    stride: 2
  }
}
layer {
  name: "pool1/norm1_pos"
  type: "LRN"
  bottom: "pool1/3x3_s2_pos"
  top: "pool1/norm1_pos"
  lrn_param {
    local_size: 5
    alpha: 0.0001
    beta: 0.75
  }
}
layer {
  name: "conv2/3x3_reduce_pos"
  type: "Convolution"
  bottom: "pool1/norm1_pos"
  top: "conv2/3x3_reduce_pos"
  param {
    name: "conv2/3x3_reduce_w"
    lr_mult: 1
    decay_mult: 1
  }
  param {
    name: "conv2/3x3_reduce_b"
    lr_mult: 2
    decay_mult: 0
  }
  convolution_param {
    num_output: 64
    kernel_size: 1
    weight_filler {
      type: "xavier"
    }
    bias_filler {
      type: "constant"
      value: 0.2
    }
  }
}
layer {
  name: "conv2/relu_3x3_reduce_pos"
  type: "ReLU"
  bottom: "conv2/3x3_reduce_pos"
  top: "conv2/3x3_reduce_pos"
}
layer {
  name: "conv2/3x3_pos"
  type: "Convolution"
  bottom: "conv2/3x3_reduce_pos"
  top: "conv2/3x3_pos"
  param {
    name: "conv2/3x3_w"
    lr_mult: 1
    decay_mult: 1
  }
  param {
    name: "conv2/3x3_b"
    lr_mult: 2
    decay_mult: 0
  }
  convolution_param {
    num_output: 192
    pad: 1
    kernel_size: 3
    weight_filler {
      type: "xavier"
    }
    bias_filler {
      type: "constant"
      value: 0.2
    }
  }
}
layer {
  name: "conv2/relu_3x3_pos"
  type: "ReLU"
  bottom: "conv2/3x3_pos"
  top: "conv2/3x3_pos"
}
layer {
  name: "conv2/norm2_pos"
  type: "LRN"
  bottom: "conv2/3x3_pos"
  top: "conv2/norm2_pos"
  lrn_param {
    local_size: 5
    alpha: 0.0001
    beta: 0.75
  }
}
layer {
  name: "pool2/3x3_s2_pos"
  type: "Pooling"
  bottom: "conv2/norm2_pos"
  top: "pool2/3x3_s2_pos"
  pooling_param {
    pool: MAX
    kernel_size: 3
    stride: 2
  }
}
layer {
  name: "inception_3a/1x1_pos"
  type: "Convolution"
  bottom: "pool2/3x3_s2_pos"
  top: "inception_3a/1x1_pos"
  param {
    name: "inception_3a/1x1_w"
    lr_mult: 1
    decay_mult: 1
  }
  param {
    name: "inception_3a/1x1_b"
    lr_mult: 2
    decay_mult: 0
  }
  convolution_param {
    num_output: 64
    kernel_size: 1
    weight_filler {
      type: "xavier"
    }
    bias_filler {
      type: "constant"
      value: 0.2
    }
  }
}
layer {
  name: "inception_3a/relu_1x1_pos"
  type: "ReLU"
  bottom: "inception_3a/1x1_pos"
  top: "inception_3a/1x1_pos"
}
layer {
  name: "inception_3a/3x3_reduce_pos"
  type: "Convolution"
  bottom: "pool2/3x3_s2_pos"
  top: "inception_3a/3x3_reduce_pos"
  param {
    name: "inception_3a/3x3_reduce_w"
    lr_mult: 1
    decay_mult: 1
  }
  param {
    name: "inception_3a/3x3_reduce_b"
    lr_mult: 2
    decay_mult: 0
  }
  convolution_param {
    num_output: 96
    kernel_size: 1
    weight_filler {
      type: "xavier"
    }
    bias_filler {
      type: "constant"
      value: 0.2
    }
  }
}
layer {
  name: "inception_3a/relu_3x3_reduce_pos"
  type: "ReLU"
  bottom: "inception_3a/3x3_reduce_pos"
  top: "inception_3a/3x3_reduce_pos"
}
layer {
  name: "inception_3a/3x3_pos"
  type: "Convolution"
  bottom: "inception_3a/3x3_reduce_pos"
  top: "inception_3a/3x3_pos"
  param {
    name: "inception_3a/3x3_w"
    lr_mult: 1
    decay_mult: 1
  }
  param {
    name: "inception_3a/3x3_b"
    lr_mult: 2
    decay_mult: 0
  }
  convolution_param {
    num_output: 128
    pad: 1
    kernel_size: 3
    weight_filler {
      type: "xavier"
    }
    bias_filler {
      type: "constant"
      value: 0.2
    }
  }
}
layer {
  name: "inception_3a/relu_3x3_pos"
  type: "ReLU"
  bottom: "inception_3a/3x3_pos"
  top: "inception_3a/3x3_pos"
}
layer {
  name: "inception_3a/5x5_reduce_pos"
  type: "Convolution"
  bottom: "pool2/3x3_s2_pos"
  top: "inception_3a/5x5_reduce_pos"
  param {
    name: "inception_3a/5x5_reduce_w"
    lr_mult: 1
    decay_mult: 1
  }
  param {
    name: "inception_3a/5x5_reduce_b"
    lr_mult: 2
    decay_mult: 0
  }
  convolution_param {
    num_output: 16
    kernel_size: 1
    weight_filler {
      type: "xavier"
    }
    bias_filler {
      type: "constant"
      value: 0.2
    }
  }
}
layer {
  name: "inception_3a/relu_5x5_reduce_pos"
  type: "ReLU"
  bottom: "inception_3a/5x5_reduce_pos"
  top: "inception_3a/5x5_reduce_pos"
}
layer {
  name: "inception_3a/5x5_pos"
  type: "Convolution"
  bottom: "inception_3a/5x5_reduce_pos"
  top: "inception_3a/5x5_pos"
  param {
    name: "inception_3a/5x5_w"
    lr_mult: 1
    decay_mult: 1
  }
  param {
    name: "inception_3a/5x5_b"
    lr_mult: 2
    decay_mult: 0
  }
  convolution_param {
    num_output: 32
    pad: 2
    kernel_size: 5
    weight_filler {
      type: "xavier"
    }
    bias_filler {
      type: "constant"
      value: 0.2
    }
  }
}
layer {
  name: "inception_3a/relu_5x5_pos"
  type: "ReLU"
  bottom: "inception_3a/5x5_pos"
  top: "inception_3a/5x5_pos"
}
layer {
  name: "inception_3a/pool_pos"
  type: "Pooling"
  bottom: "pool2/3x3_s2_pos"
  top: "inception_3a/pool_pos"
  pooling_param {
    pool: MAX
    kernel_size: 3
    stride: 1
    pad: 1
  }
}
layer {
  name: "inception_3a/pool_proj_pos"
  type: "Convolution"
  bottom: "inception_3a/pool_pos"
  top: "inception_3a/pool_proj_pos"
  param {
    name: "inception_3a/pool_proj_w"
    lr_mult: 1
    decay_mult: 1
  }
  param {
    name: "inception_3a/pool_proj_b"
    lr_mult: 2
    decay_mult: 0
  }
  convolution_param {
    num_output: 32
    kernel_size: 1
    weight_filler {
      type: "xavier"
    }
    bias_filler {
      type: "constant"
      value: 0.2
    }
  }
}
layer {
  name: "inception_3a/relu_pool_proj_pos"
  type: "ReLU"
  bottom: "inception_3a/pool_proj_pos"
  top: "inception_3a/pool_proj_pos"
}
layer {
  name: "inception_3a/output_pos"
  type: "Concat"
  bottom: "inception_3a/1x1_pos"
  bottom: "inception_3a/3x3_pos"
  bottom: "inception_3a/5x5_pos"
  bottom: "inception_3a/pool_proj_pos"
  top: "inception_3a/output_pos"
}
layer {
  name: "inception_3b/1x1_pos"
  type: "Convolution"
  bottom: "inception_3a/output_pos"
  top: "inception_3b/1x1_pos"
  param {
    name: "inception_3b/1x1_w"
    lr_mult: 1
    decay_mult: 1
  }
  param {
    name: "inception_3b/1x1_b"
    lr_mult: 2
    decay_mult: 0
  }
  convolution_param {
    num_output: 128
    kernel_size: 1
    weight_filler {
      type: "xavier"
    }
    bias_filler {
      type: "constant"
      value: 0.2
    }
  }
}
layer {
  name: "inception_3b/relu_1x1_pos"
  type: "ReLU"
  bottom: "inception_3b/1x1_pos"
  top: "inception_3b/1x1_pos"
}
layer {
  name: "inception_3b/3x3_reduce_pos"
  type: "Convolution"
  bottom: "inception_3a/output_pos"
  top: "inception_3b/3x3_reduce_pos"
  param {
    name: "inception_3b/3x3_reduce_w"
    lr_mult: 1
    decay_mult: 1
  }
  param {
    name: "inception_3b/3x3_reduce_b"
    lr_mult: 2
    decay_mult: 0
  }
  convolution_param {
    num_output: 128
    kernel_size: 1
    weight_filler {
      type: "xavier"
    }
    bias_filler {
      type: "constant"
      value: 0.2
    }
  }
}
layer {
  name: "inception_3b/relu_3x3_reduce_pos"
  type: "ReLU"
  bottom: "inception_3b/3x3_reduce_pos"
  top: "inception_3b/3x3_reduce_pos"
}
layer {
  name: "inception_3b/3x3_pos"
  type: "Convolution"
  bottom: "inception_3b/3x3_reduce_pos"
  top: "inception_3b/3x3_pos"
  param {
    name: "inception_3b/3x3_w"
    lr_mult: 1
    decay_mult: 1
  }
  param {
    name: "inception_3b/3x3_b"
    lr_mult: 2
    decay_mult: 0
  }
  convolution_param {
    num_output: 192
    pad: 1
    kernel_size: 3
    weight_filler {
      type: "xavier"
    }
    bias_filler {
      type: "constant"
      value: 0.2
    }
  }
}
layer {
  name: "inception_3b/relu_3x3_pos"
  type: "ReLU"
  bottom: "inception_3b/3x3_pos"
  top: "inception_3b/3x3_pos"
}
layer {
  name: "inception_3b/5x5_reduce_pos"
  type: "Convolution"
  bottom: "inception_3a/output_pos"
  top: "inception_3b/5x5_reduce_pos"
  param {
    name: "inception_3b/5x5_reduce_w"
    lr_mult: 1
    decay_mult: 2
  }
  param {
    name: "inception_3b/5x5_reduce_b"
    lr_mult: 2
    decay_mult: 0
  }
  convolution_param {
    num_output: 32
    kernel_size: 1
    weight_filler {
      type: "xavier"
    }
    bias_filler {
      type: "constant"
      value: 0.2
    }
  }
}
layer {
  name: "inception_3b/relu_5x5_reduce_pos"
  type: "ReLU"
  bottom: "inception_3b/5x5_reduce_pos"
  top: "inception_3b/5x5_reduce_pos"
}
layer {
  name: "inception_3b/5x5_pos"
  type: "Convolution"
  bottom: "inception_3b/5x5_reduce_pos"
  top: "inception_3b/5x5_pos"
  param {
    name: "inception_3b/5x5_w"
    lr_mult: 1
    decay_mult: 1
  }
  param {
    name: "inception_3b/5x5_b"
    lr_mult: 2
    decay_mult: 0
  }
  convolution_param {
    num_output: 96
    pad: 2
    kernel_size: 5
    weight_filler {
      type: "xavier"
    }
    bias_filler {
      type: "constant"
      value: 0.2
    }
  }
}
layer {
  name: "inception_3b/relu_5x5_pos"
  type: "ReLU"
  bottom: "inception_3b/5x5_pos"
  top: "inception_3b/5x5_pos"
}
layer {
  name: "inception_3b/pool_pos"
  type: "Pooling"
  bottom: "inception_3a/output_pos"
  top: "inception_3b/pool_pos"
  pooling_param {
    pool: MAX
    kernel_size: 3
    stride: 1
    pad: 1
  }
}
layer {
  name: "inception_3b/pool_proj_pos"
  type: "Convolution"
  bottom: "inception_3b/pool_pos"
  top: "inception_3b/pool_proj_pos"
  param {
    name: "inception_3b/pool_proj_w"
    lr_mult: 1
    decay_mult: 1
  }
  param {
    name: "inception_3b/pool_proj_b"
    lr_mult: 2
    decay_mult: 0
  }
  convolution_param {
    num_output: 64
    kernel_size: 1
    weight_filler {
      type: "xavier"
    }
    bias_filler {
      type: "constant"
      value: 0.2
    }
  }
}
layer {
  name: "inception_3b/relu_pool_proj_pos"
  type: "ReLU"
  bottom: "inception_3b/pool_proj_pos"
  top: "inception_3b/pool_proj_pos"
}
layer {
  name: "inception_3b/output_pos"
  type: "Concat"
  bottom: "inception_3b/1x1_pos"
  bottom: "inception_3b/3x3_pos"
  bottom: "inception_3b/5x5_pos"
  bottom: "inception_3b/pool_proj_pos"
  top: "inception_3b/output_pos"
}
layer {
  name: "pool3/3x3_s2_pos"
  type: "Pooling"
  bottom: "inception_3b/output_pos"
  top: "pool3/3x3_s2_pos"
  pooling_param {
    pool: MAX
    kernel_size: 3
    stride: 2
  }
}
layer {
  name: "inception_4a/1x1_pos"
  type: "Convolution"
  bottom: "pool3/3x3_s2_pos"
  top: "inception_4a/1x1_pos"
  param {
  name: "inception_4a/1x1_w"
    lr_mult: 1
    decay_mult: 1
  }
  param {
  name: "inception_4a/1x1_b"
    lr_mult: 2
    decay_mult: 0
  }
  convolution_param {
    num_output: 192
    kernel_size: 1
    weight_filler {
      type: "xavier"
    }
    bias_filler {
      type: "constant"
      value: 0.2
    }
  }
}
layer {
  name: "inception_4a/relu_1x1_pos"
  type: "ReLU"
  bottom: "inception_4a/1x1_pos"
  top: "inception_4a/1x1_pos"
}
layer {
  name: "inception_4a/3x3_reduce_pos"
  type: "Convolution"
  bottom: "pool3/3x3_s2_pos"
  top: "inception_4a/3x3_reduce_pos"
  param {
  name: "inception_4a/3x3_reduce_w"
    lr_mult: 1
    decay_mult: 1
  }
  param {
  name: "inception_4a/3x3_reduce_b"
    lr_mult: 2
    decay_mult: 0
  }
  convolution_param {
    num_output: 96
    kernel_size: 1
    weight_filler {
      type: "xavier"
    }
    bias_filler {
      type: "constant"
      value: 0.2
    }
  }
}
layer {
  name: "inception_4a/relu_3x3_reduce_pos"
  type: "ReLU"
  bottom: "inception_4a/3x3_reduce_pos"
  top: "inception_4a/3x3_reduce_pos"
}
layer {
  name: "inception_4a/3x3_pos"
  type: "Convolution"
  bottom: "inception_4a/3x3_reduce_pos"
  top: "inception_4a/3x3_pos"
  param {
  name: "inception_4a/3x3_w"
    lr_mult: 1
    decay_mult: 1
  }
  param {
  name: "inception_4a/3x3_b"
    lr_mult: 2
    decay_mult: 0
  }
  convolution_param {
    num_output: 208
    pad: 1
    kernel_size: 3
    weight_filler {
      type: "xavier"
    }
    bias_filler {
      type: "constant"
      value: 0.2
    }
  }
}
layer {
  name: "inception_4a/relu_3x3_pos"
  type: "ReLU"
  bottom: "inception_4a/3x3_pos"
  top: "inception_4a/3x3_pos"
}
layer {
  name: "inception_4a/5x5_reduce_pos"
  type: "Convolution"
  bottom: "pool3/3x3_s2_pos"
  top: "inception_4a/5x5_reduce_pos"
  param {
  name: "inception_4a/5x5_reduce_w"
    lr_mult: 1
    decay_mult: 1
  }
  param {
  name: "inception_4a/5x5_reduce_b"
    lr_mult: 2
    decay_mult: 0
  }
  convolution_param {
    num_output: 16
    kernel_size: 1
    weight_filler {
      type: "xavier"
    }
    bias_filler {
      type: "constant"
      value: 0.2
    }
  }
}
layer {
  name: "inception_4a/relu_5x5_reduce_pos"
  type: "ReLU"
  bottom: "inception_4a/5x5_reduce_pos"
  top: "inception_4a/5x5_reduce_pos"
}
layer {
  name: "inception_4a/5x5_pos"
  type: "Convolution"
  bottom: "inception_4a/5x5_reduce_pos"
  top: "inception_4a/5x5_pos"
  param {
  name: "inception_4a/5x5_w"
    lr_mult: 1
    decay_mult: 1
  }
  param {
  name: "inception_4a/5x5_b"
    lr_mult: 2
    decay_mult: 0
  }
  convolution_param {
    num_output: 48
    pad: 2
    kernel_size: 5
    weight_filler {
      type: "xavier"
    }
    bias_filler {
      type: "constant"
      value: 0.2
    }
  }
}
layer {
  name: "inception_4a/relu_5x5_pos"
  type: "ReLU"
  bottom: "inception_4a/5x5_pos"
  top: "inception_4a/5x5_pos"
}
layer {
  name: "inception_4a/pool_pos"
  type: "Pooling"
  bottom: "pool3/3x3_s2_pos"
  top: "inception_4a/pool_pos"
  pooling_param {
    pool: MAX
    kernel_size: 3
    stride: 1
    pad: 1
  }
}
layer {
  name: "inception_4a/pool_proj_pos"
  type: "Convolution"
  bottom: "inception_4a/pool_pos"
  top: "inception_4a/pool_proj_pos"
  param {
  name: "inception_4a/pool_proj_w"
    lr_mult: 1
    decay_mult: 1
  }
  param {
  name: "inception_4a/pool_proj_b"
    lr_mult: 2
    decay_mult: 0
  }
  convolution_param {
    num_output: 64
    kernel_size: 1
    weight_filler {
      type: "xavier"
    }
    bias_filler {
      type: "constant"
      value: 0.2
    }
  }
}
layer {
  name: "inception_4a/relu_pool_proj_pos"
  type: "ReLU"
  bottom: "inception_4a/pool_proj_pos"
  top: "inception_4a/pool_proj_pos"
}
layer {
  name: "inception_4a/output_pos"
  type: "Concat"
  bottom: "inception_4a/1x1_pos"
  bottom: "inception_4a/3x3_pos"
  bottom: "inception_4a/5x5_pos"
  bottom: "inception_4a/pool_proj_pos"
  top: "inception_4a/output_pos"
}

# -- PREPROCESSING FOR LOSS 1


layer {
  name: "loss1/ave_pool_pos"
  type: "Pooling"
  bottom: "inception_4a/output_pos"
  top: "loss1/ave_pool_pos"
  pooling_param {
    pool: AVE
    kernel_size: 5
    stride: 3
  }
}
layer {
  name: "loss1/conv_pos"
  type: "Convolution"
  bottom: "loss1/ave_pool_pos"
  top: "loss1/conv_pos"
  param {
  name: "loss1/conv_w"
    lr_mult: 1
    decay_mult: 1
  }
  param {
  name: "loss1/conv_b"
    lr_mult: 2
    decay_mult: 0
  }
  convolution_param {
    num_output: 128
    kernel_size: 1
    weight_filler {
      type: "xavier"
    }
    bias_filler {
      type: "constant"
      value: 0.2
    }
  }
}
layer {
  name: "loss1/relu_conv_pos"
  type: "ReLU"
  bottom: "loss1/conv_pos"
  top: "loss1/conv_pos"
}
layer {
  name: "loss1/fc_pos"
  type: "InnerProduct"
  bottom: "loss1/conv_pos"
  top: "loss1/fc_pos"
  param {
  name: "loss1/fc_w"
    lr_mult: 1
    decay_mult: 1
  }
  param {
  name: "loss1/fc_b"
    lr_mult: 2
    decay_mult: 0
  }
  inner_product_param {
    num_output: 1024
    weight_filler {
      type: "xavier"
    }
    bias_filler {
      type: "constant"
      value: 0.2
    }
  }
}
layer {
  name: "loss1/relu_fc_pos"
  type: "ReLU"
  bottom: "loss1/fc_pos"
  top: "loss1/fc_pos"
}
layer {
  name: "loss1/drop_fc_pos"
  type: "Dropout"
  bottom: "loss1/fc_pos"
  top: "loss1/fc_pos"
  dropout_param {
    dropout_ratio: 0.7
  }
}
layer {
  name: "loss1/classifierCustom_pos"
  type: "InnerProduct"
  bottom: "loss1/fc_pos"
  top: "loss1/classifierCustom_pos"
  param {
  name: "loss1/classifierCustom_w"
    lr_mult: 1
    decay_mult: 1
  }
  param {
  name: "loss1/classifierCustom_b"
    lr_mult: 2
    decay_mult: 0
  }
  inner_product_param {
    num_output: 1000
    weight_filler {
      type: "xavier"
    }
    bias_filler {
      type: "constant"
      value: 0
    }
  }
}

layer {
  name: "relu1_pos"
  type: "ReLU"
  bottom: "loss1/classifierCustom_pos"
  top: "loss1/classifierCustom_pos"
}

layer {
  name: "denom1_pos"
  type: "Reduction"
  bottom: "loss1/classifierCustom_pos"
  top: "denom1_pos"
  reduction_param {
    operation: SUMSQ
    axis: 1
  }
}
layer {
  name: "power1_pos"
  type: "Power"
  bottom: "denom1_pos"
  top: "power1_pos"
  power_param {
    power: -0.5
    shift: 9.99999996004e-13
  }
}
layer {
  name: "reshape1_pos"
  type: "Reshape"
  bottom: "power1_pos"
  top: "reshape1_pos"
  reshape_param {
    shape {
      dim: 1
    }
    axis: -1
    num_axes: 0
  }
}
layer {
  name: "tile1_pos"
  type: "Tile"
  bottom: "reshape1_pos"
  top: "tile1_pos"
  tile_param {
    axis: 1
    tiles: 1000
  }
}
layer {
  name: "elwise1_pos"
  type: "Eltwise"
  bottom: "loss1/classifierCustom_pos"
  bottom: "tile1_pos"
  top: "elwise1_pos"
  eltwise_param {
    operation: PROD
  }
}



layer {
  name: "inception_4b/1x1_pos"
  type: "Convolution"
  bottom: "inception_4a/output_pos"
  top: "inception_4b/1x1_pos"
  param {
  name: "inception_4b/1x1_w"
    lr_mult: 1
    decay_mult: 1
  }
  param {
  name: "inception_4b/1x1_b"
    lr_mult: 2
    decay_mult: 0
  }
  convolution_param {
    num_output: 160
    kernel_size: 1
    weight_filler {
      type: "xavier"
    }
    bias_filler {
      type: "constant"
      value: 0.2
    }
  }
}
layer {
  name: "inception_4b/relu_1x1_pos"
  type: "ReLU"
  bottom: "inception_4b/1x1_pos"
  top: "inception_4b/1x1_pos"
}
layer {
  name: "inception_4b/3x3_reduce_pos"
  type: "Convolution"
  bottom: "inception_4a/output_pos"
  top: "inception_4b/3x3_reduce_pos"
  param {
  name: "inception_4b/3x3_reduce_w"
    lr_mult: 1
    decay_mult: 1
  }
  param {
  name: "inception_4b/3x3_reduce_b"
    lr_mult: 2
    decay_mult: 0
  }
  convolution_param {
    num_output: 112
    kernel_size: 1
    weight_filler {
      type: "xavier"
    }
    bias_filler {
      type: "constant"
      value: 0.2
    }
  }
}
layer {
  name: "inception_4b/relu_3x3_reduce_pos"
  type: "ReLU"
  bottom: "inception_4b/3x3_reduce_pos"
  top: "inception_4b/3x3_reduce_pos"
}
layer {
  name: "inception_4b/3x3_pos"
  type: "Convolution"
  bottom: "inception_4b/3x3_reduce_pos"
  top: "inception_4b/3x3_pos"
  param {
  name: "inception_4b/3x3_w"
    lr_mult: 1
    decay_mult: 1
  }
  param {
  name: "inception_4b/3x3_b"
    lr_mult: 2
    decay_mult: 0
  }
  convolution_param {
    num_output: 224
    pad: 1
    kernel_size: 3
    weight_filler {
      type: "xavier"
    }
    bias_filler {
      type: "constant"
      value: 0.2
    }
  }
}
layer {
  name: "inception_4b/relu_3x3_pos"
  type: "ReLU"
  bottom: "inception_4b/3x3_pos"
  top: "inception_4b/3x3_pos"
}
layer {
  name: "inception_4b/5x5_reduce_pos"
  type: "Convolution"
  bottom: "inception_4a/output_pos"
  top: "inception_4b/5x5_reduce_pos"
  param {
  name: "inception_4b/5x5_reduce_w"
    lr_mult: 1
    decay_mult: 1
  }
  param {
  name: "inception_4b/5x5_reduce_b"
    lr_mult: 2
    decay_mult: 0
  }
  convolution_param {
    num_output: 24
    kernel_size: 1
    weight_filler {
      type: "xavier"
    }
    bias_filler {
      type: "constant"
      value: 0.2
    }
  }
}
layer {
  name: "inception_4b/relu_5x5_reduce_pos"
  type: "ReLU"
  bottom: "inception_4b/5x5_reduce_pos"
  top: "inception_4b/5x5_reduce_pos"
}
layer {
  name: "inception_4b/5x5_pos"
  type: "Convolution"
  bottom: "inception_4b/5x5_reduce_pos"
  top: "inception_4b/5x5_pos"
  param {
  name: "inception_4b/5x5_w"
    lr_mult: 1
    decay_mult: 1
  }
  param {
  name: "inception_4b/5x5_b"
    lr_mult: 2
    decay_mult: 0
  }
  convolution_param {
    num_output: 64
    pad: 2
    kernel_size: 5
    weight_filler {
      type: "xavier"
    }
    bias_filler {
      type: "constant"
      value: 0.2
    }
  }
}
layer {
  name: "inception_4b/relu_5x5_pos"
  type: "ReLU"
  bottom: "inception_4b/5x5_pos"
  top: "inception_4b/5x5_pos"
}
layer {
  name: "inception_4b/pool_pos"
  type: "Pooling"
  bottom: "inception_4a/output_pos"
  top: "inception_4b/pool_pos"
  pooling_param {
    pool: MAX
    kernel_size: 3
    stride: 1
    pad: 1
  }
}
layer {
  name: "inception_4b/pool_proj_pos"
  type: "Convolution"
  bottom: "inception_4b/pool_pos"
  top: "inception_4b/pool_proj_pos"
  param {
  name: "inception_4b/pool_proj_w"
    lr_mult: 1
    decay_mult: 1
  }
  param {
  name: "inception_4b/pool_proj_b"
    lr_mult: 2
    decay_mult: 0
  }
  convolution_param {
    num_output: 64
    kernel_size: 1
    weight_filler {
      type: "xavier"
    }
    bias_filler {
      type: "constant"
      value: 0.2
    }
  }
}
layer {
  name: "inception_4b/relu_pool_proj_pos"
  type: "ReLU"
  bottom: "inception_4b/pool_proj_pos"
  top: "inception_4b/pool_proj_pos"
}
layer {
  name: "inception_4b/output_pos"
  type: "Concat"
  bottom: "inception_4b/1x1_pos"
  bottom: "inception_4b/3x3_pos"
  bottom: "inception_4b/5x5_pos"
  bottom: "inception_4b/pool_proj_pos"
  top: "inception_4b/output_pos"
}
layer {
  name: "inception_4c/1x1_pos"
  type: "Convolution"
  bottom: "inception_4b/output_pos"
  top: "inception_4c/1x1_pos"
  param {
  name: "inception_4c/1x1_w"
    lr_mult: 1
    decay_mult: 2
  }
  param {
  name: "inception_4c/1x1_b"
    lr_mult: 2
    decay_mult: 0
  }
  convolution_param {
    num_output: 128
    kernel_size: 1
    weight_filler {
      type: "xavier"
    }
    bias_filler {
      type: "constant"
      value: 0.2
    }
  }
}
layer {
  name: "inception_4c/relu_1x1_pos"
  type: "ReLU"
  bottom: "inception_4c/1x1_pos"
  top: "inception_4c/1x1_pos"
}
layer {
  name: "inception_4c/3x3_reduce_pos"
  type: "Convolution"
  bottom: "inception_4b/output_pos"
  top: "inception_4c/3x3_reduce_pos"
  param {
  name: "inception_4c/3x3_reduce_w"
    lr_mult: 1
    decay_mult: 1
  }
  param {
  name: "inception_4c/3x3_reduce_b"
    lr_mult: 2
    decay_mult: 0
  }
  convolution_param {
    num_output: 128
    kernel_size: 1
    weight_filler {
      type: "xavier"
    }
    bias_filler {
      type: "constant"
      value: 0.2
    }
  }
}
layer {
  name: "inception_4c/relu_3x3_reduce_pos"
  type: "ReLU"
  bottom: "inception_4c/3x3_reduce_pos"
  top: "inception_4c/3x3_reduce_pos"
}
layer {
  name: "inception_4c/3x3_pos"
  type: "Convolution"
  bottom: "inception_4c/3x3_reduce_pos"
  top: "inception_4c/3x3_pos"
  param {
  name: "inception_4c/3x3_w"
    lr_mult: 1
    decay_mult: 1
  }
  param {
  name: "inception_4c/3x3_b"
    lr_mult: 2
    decay_mult: 0
  }
  convolution_param {
    num_output: 256
    pad: 1
    kernel_size: 3
    weight_filler {
      type: "xavier"
    }
    bias_filler {
      type: "constant"
      value: 0.2
    }
  }
}
layer {
  name: "inception_4c/relu_3x3_pos"
  type: "ReLU"
  bottom: "inception_4c/3x3_pos"
  top: "inception_4c/3x3_pos"
}
layer {
  name: "inception_4c/5x5_reduce_pos"
  type: "Convolution"
  bottom: "inception_4b/output_pos"
  top: "inception_4c/5x5_reduce_pos"
  param {
  name: "inception_4c/5x5_reduce_w"
    lr_mult: 1
    decay_mult: 1
  }
  param {
  name: "inception_4c/5x5_reduce_b"
    lr_mult: 2
    decay_mult: 0
  }
  convolution_param {
    num_output: 24
    kernel_size: 1
    weight_filler {
      type: "xavier"
    }
    bias_filler {
      type: "constant"
      value: 0.2
    }
  }
}
layer {
  name: "inception_4c/relu_5x5_reduce_pos"
  type: "ReLU"
  bottom: "inception_4c/5x5_reduce_pos"
  top: "inception_4c/5x5_reduce_pos"
}
layer {
  name: "inception_4c/5x5_pos"
  type: "Convolution"
  bottom: "inception_4c/5x5_reduce_pos"
  top: "inception_4c/5x5_pos"
  param {
  name: "inception_4c/5x5_w"
    lr_mult: 1
    decay_mult: 1
  }
  param {
  name: "inception_4c/5x5_b"
    lr_mult: 2
    decay_mult: 0
  }
  convolution_param {
    num_output: 64
    pad: 2
    kernel_size: 5
    weight_filler {
      type: "xavier"
    }
    bias_filler {
      type: "constant"
      value: 0.2
    }
  }
}
layer {
  name: "inception_4c/relu_5x5_pos"
  type: "ReLU"
  bottom: "inception_4c/5x5_pos"
  top: "inception_4c/5x5_pos"
}
layer {
  name: "inception_4c/pool_pos"
  type: "Pooling"
  bottom: "inception_4b/output_pos"
  top: "inception_4c/pool_pos"
  pooling_param {
    pool: MAX
    kernel_size: 3
    stride: 1
    pad: 1
  }
}
layer {
  name: "inception_4c/pool_proj_pos"
  type: "Convolution"
  bottom: "inception_4c/pool_pos"
  top: "inception_4c/pool_proj_pos"
  param {
  name: "inception_4c/pool_proj_w"
    lr_mult: 1
    decay_mult: 1
  }
  param {
  name: "inception_4c/pool_proj_b"
    lr_mult: 2
    decay_mult: 0
  }
  convolution_param {
    num_output: 64
    kernel_size: 1
    weight_filler {
      type: "xavier"
    }
    bias_filler {
      type: "constant"
      value: 0.2
    }
  }
}
layer {
  name: "inception_4c/relu_pool_proj_pos"
  type: "ReLU"
  bottom: "inception_4c/pool_proj_pos"
  top: "inception_4c/pool_proj_pos"
}
layer {
  name: "inception_4c/output_pos"
  type: "Concat"
  bottom: "inception_4c/1x1_pos"
  bottom: "inception_4c/3x3_pos"
  bottom: "inception_4c/5x5_pos"
  bottom: "inception_4c/pool_proj_pos"
  top: "inception_4c/output_pos"
}
layer {
  name: "inception_4d/1x1_pos"
  type: "Convolution"
  bottom: "inception_4c/output_pos"
  top: "inception_4d/1x1_pos"
  param {
  name: "inception_4d/1x1_w"
    lr_mult: 1
    decay_mult: 1
  }
  param {
  name: "inception_4d/1x1_b"
    lr_mult: 2
    decay_mult: 0
  }
  convolution_param {
    num_output: 112
    kernel_size: 1
    weight_filler {
      type: "xavier"
    }
    bias_filler {
      type: "constant"
      value: 0.2
    }
  }
}
layer {
  name: "inception_4d/relu_1x1_pos"
  type: "ReLU"
  bottom: "inception_4d/1x1_pos"
  top: "inception_4d/1x1_pos"
}
layer {
  name: "inception_4d/3x3_reduce_pos"
  type: "Convolution"
  bottom: "inception_4c/output_pos"
  top: "inception_4d/3x3_reduce_pos"
  param {
  name: "inception_4d/3x3_reduce_w"
    lr_mult: 1
    decay_mult: 1
  }
  param {
  name: "inception_4d/3x3_reduce_b"
    lr_mult: 2
    decay_mult: 0
  }
  convolution_param {
    num_output: 144
    kernel_size: 1
    weight_filler {
      type: "xavier"
    }
    bias_filler {
      type: "constant"
      value: 0.2
    }
  }
}
layer {
  name: "inception_4d/relu_3x3_reduce_pos"
  type: "ReLU"
  bottom: "inception_4d/3x3_reduce_pos"
  top: "inception_4d/3x3_reduce_pos"
}
layer {
  name: "inception_4d/3x3_pos"
  type: "Convolution"
  bottom: "inception_4d/3x3_reduce_pos"
  top: "inception_4d/3x3_pos"
  param {
  name: "inception_4d/3x3_w"
    lr_mult: 1
    decay_mult: 1
  }
  param {
  name: "inception_4d/3x3_b"
    lr_mult: 2
    decay_mult: 0
  }
  convolution_param {
    num_output: 288
    pad: 1
    kernel_size: 3
    weight_filler {
      type: "xavier"
    }
    bias_filler {
      type: "constant"
      value: 0.2
    }
  }
}
layer {
  name: "inception_4d/relu_3x3_pos"
  type: "ReLU"
  bottom: "inception_4d/3x3_pos"
  top: "inception_4d/3x3_pos"
}
layer {
  name: "inception_4d/5x5_reduce_pos"
  type: "Convolution"
  bottom: "inception_4c/output_pos"
  top: "inception_4d/5x5_reduce_pos"
  param {
  name: "inception_4d/5x5_reduce_w"
    lr_mult: 1
    decay_mult: 1
  }
  param {
  name: "inception_4d/5x5_reduce_b"
    lr_mult: 2
    decay_mult: 0
  }
  convolution_param {
    num_output: 32
    kernel_size: 1
    weight_filler {
      type: "xavier"
    }
    bias_filler {
      type: "constant"
      value: 0.2
    }
  }
}
layer {
  name: "inception_4d/relu_5x5_reduce_pos"
  type: "ReLU"
  bottom: "inception_4d/5x5_reduce_pos"
  top: "inception_4d/5x5_reduce_pos"
}
layer {
  name: "inception_4d/5x5_pos"
  type: "Convolution"
  bottom: "inception_4d/5x5_reduce_pos"
  top: "inception_4d/5x5_pos"
  param {
  name: "inception_4d/5x5_w"
    lr_mult: 1
    decay_mult: 1
  }
  param {
  name: "inception_4d/5x5_b"
    lr_mult: 2
    decay_mult: 0
  }
  convolution_param {
    num_output: 64
    pad: 2
    kernel_size: 5
    weight_filler {
      type: "xavier"
    }
    bias_filler {
      type: "constant"
      value: 0.2
    }
  }
}
layer {
  name: "inception_4d/relu_5x5_pos"
  type: "ReLU"
  bottom: "inception_4d/5x5_pos"
  top: "inception_4d/5x5_pos"
}
layer {
  name: "inception_4d/pool_pos"
  type: "Pooling"
  bottom: "inception_4c/output_pos"
  top: "inception_4d/pool_pos"
  pooling_param {
    pool: MAX
    kernel_size: 3
    stride: 1
    pad: 1
  }
}
layer {
  name: "inception_4d/pool_proj_pos"
  type: "Convolution"
  bottom: "inception_4d/pool_pos"
  top: "inception_4d/pool_proj_pos"
  param {
  name: "inception_4d/pool_proj_w"
    lr_mult: 1
    decay_mult: 1
  }
  param {
  name: "inception_4d/pool_proj_b"
    lr_mult: 2
    decay_mult: 0
  }
  convolution_param {
    num_output: 64
    kernel_size: 1
    weight_filler {
      type: "xavier"
    }
    bias_filler {
      type: "constant"
      value: 0.2
    }
  }
}
layer {
  name: "inception_4d/relu_pool_proj_pos"
  type: "ReLU"
  bottom: "inception_4d/pool_proj_pos"
  top: "inception_4d/pool_proj_pos"
}
layer {
  name: "inception_4d/output_pos"
  type: "Concat"
  bottom: "inception_4d/1x1_pos"
  bottom: "inception_4d/3x3_pos"
  bottom: "inception_4d/5x5_pos"
  bottom: "inception_4d/pool_proj_pos"
  top: "inception_4d/output_pos"
}


# -- PREPROCESSING FOR LOSS 2

layer {
  name: "loss2/ave_pool_pos"
  type: "Pooling"
  bottom: "inception_4d/output_pos"
  top: "loss2/ave_pool_pos"
  pooling_param {
    pool: AVE
    kernel_size: 5
    stride: 3
  }
}
layer {
  name: "loss2/conv_pos"
  type: "Convolution"
  bottom: "loss2/ave_pool_pos"
  top: "loss2/conv_pos"
  param {
  name: "loss2/conv_w"
    lr_mult: 1
    decay_mult: 1
  }
  param {
  name: "loss2/conv_b"
    lr_mult: 2
    decay_mult: 0
  }
  convolution_param {
    num_output: 128
    kernel_size: 1
    weight_filler {
      type: "xavier"
    }
    bias_filler {
      type: "constant"
      value: 0.2
    }
  }
}
layer {
  name: "loss2/relu_conv_pos"
  type: "ReLU"
  bottom: "loss2/conv_pos"
  top: "loss2/conv_pos"
}
layer {
  name: "loss2/fc_pos"
  type: "InnerProduct"
  bottom: "loss2/conv_pos"
  top: "loss2/fc_pos"
  param {
  name: "loss2/fc_w"
    lr_mult: 1
    decay_mult: 1
  }
  param {
  name: "loss2/fc_b"
    lr_mult: 2
    decay_mult: 0
  }
  inner_product_param {
    num_output: 1024
    weight_filler {
      type: "xavier"
    }
    bias_filler {
      type: "constant"
      value: 0.2
    }
  }
}
layer {
  name: "loss2/relu_fc_pos"
  type: "ReLU"
  bottom: "loss2/fc_pos"
  top: "loss2/fc_pos"
}
layer {
  name: "loss2/drop_fc_pos"
  type: "Dropout"
  bottom: "loss2/fc_pos"
  top: "loss2/fc_pos"
  dropout_param {
    dropout_ratio: 0.7
  }
}
layer {
  name: "loss2/classifierCustom_pos"
  type: "InnerProduct"
  bottom: "loss2/fc_pos"
  top: "loss2/classifierCustom_pos"
  param {
  name: "loss2/classifierCustom_w"
    lr_mult: 1
    decay_mult: 1
  }
  param {
  name: "loss2/classifierCustom_b"
    lr_mult: 2
    decay_mult: 0
  }
  inner_product_param {
    num_output: 1000
    weight_filler {
      type: "xavier"
    }
    bias_filler {
      type: "constant"
      value: 0
    }
  }
}


layer {
  name: "relu2_pos"
  type: "ReLU"
  bottom: "loss2/classifierCustom_pos"
  top: "loss2/classifierCustom_pos"
}

layer {
  name: "denom2"
  type: "Reduction"
  bottom: "loss2/classifierCustom_pos"
  top: "denom2_pos"
  reduction_param {
    operation: SUMSQ
    axis: 1
  }
}
layer {
  name: "power2_pos"
  type: "Power"
  bottom: "denom2_pos"
  top: "power2_pos"
  power_param {
    power: -0.5
    shift: 9.99999996004e-13
  }
}
layer {
  name: "reshape2_pos"
  type: "Reshape"
  bottom: "power2_pos"
  top: "reshape2_pos"
  reshape_param {
    shape {
      dim: 1
    }
    axis: -1
    num_axes: 0
  }
}
layer {
  name: "tile2_pos"
  type: "Tile"
  bottom: "reshape2_pos"
  top: "tile2_pos"
  tile_param {
    axis: 1
    tiles: 1000
  }
}
layer {
  name: "elwise2_pos"
  type: "Eltwise"
  bottom: "loss2/classifierCustom_pos"
  bottom: "tile2_pos"
  top: "elwise2_pos"
  eltwise_param {
    operation: PROD
  }
}



layer {
  name: "inception_4e/1x1_pos"
  type: "Convolution"
  bottom: "inception_4d/output_pos"
  top: "inception_4e/1x1_pos"
  param {
  name: "inception_4e/1x1_w"
    lr_mult: 1
    decay_mult: 1
  }
  param {
  name: "inception_4e/1x1_b"
    lr_mult: 2
    decay_mult: 0
  }
  convolution_param {
    num_output: 256
    kernel_size: 1
    weight_filler {
      type: "xavier"
    }
    bias_filler {
      type: "constant"
      value: 0.2
    }
  }
}
layer {
  name: "inception_4e/relu_1x1_pos"
  type: "ReLU"
  bottom: "inception_4e/1x1_pos"
  top: "inception_4e/1x1_pos"
}
layer {
  name: "inception_4e/3x3_reduce_pos"
  type: "Convolution"
  bottom: "inception_4d/output_pos"
  top: "inception_4e/3x3_reduce_pos"
  param {
  name: "inception_4e/3x3_reduce_w"
    lr_mult: 1
    decay_mult: 1
  }
  param {
  name: "inception_4e/3x3_reduce_b"
    lr_mult: 2
    decay_mult: 0
  }
  convolution_param {
    num_output: 160
    kernel_size: 1
    weight_filler {
      type: "xavier"
    }
    bias_filler {
      type: "constant"
      value: 0.2
    }
  }
}
layer {
  name: "inception_4e/relu_3x3_reduce_pos"
  type: "ReLU"
  bottom: "inception_4e/3x3_reduce_pos"
  top: "inception_4e/3x3_reduce_pos"
}
layer {
  name: "inception_4e/3x3_pos"
  type: "Convolution"
  bottom: "inception_4e/3x3_reduce_pos"
  top: "inception_4e/3x3_pos"
  param {
  name: "inception_4e/3x3_w"
    lr_mult: 1
    decay_mult: 1
  }
  param {
  name: "inception_4e/3x3_b"
    lr_mult: 2
    decay_mult: 0
  }
  convolution_param {
    num_output: 320
    pad: 1
    kernel_size: 3
    weight_filler {
      type: "xavier"
    }
    bias_filler {
      type: "constant"
      value: 0.2
    }
  }
}
layer {
  name: "inception_4e/relu_3x3_pos"
  type: "ReLU"
  bottom: "inception_4e/3x3_pos"
  top: "inception_4e/3x3_pos"
}
layer {
  name: "inception_4e/5x5_reduce_pos"
  type: "Convolution"
  bottom: "inception_4d/output_pos"
  top: "inception_4e/5x5_reduce_pos"
  param {
  name: "inception_4e/5x5_reduce_w"
    lr_mult: 1
    decay_mult: 1
  }
  param {
  name: "inception_4e/5x5_reduce_b"
    lr_mult: 2
    decay_mult: 0
  }
  convolution_param {
    num_output: 32
    kernel_size: 1
    weight_filler {
      type: "xavier"
    }
    bias_filler {
      type: "constant"
      value: 0.2
    }
  }
}
layer {
  name: "inception_4e/relu_5x5_reduce_pos"
  type: "ReLU"
  bottom: "inception_4e/5x5_reduce_pos"
  top: "inception_4e/5x5_reduce_pos"
}
layer {
  name: "inception_4e/5x5_pos"
  type: "Convolution"
  bottom: "inception_4e/5x5_reduce_pos"
  top: "inception_4e/5x5_pos"
  param {
  name: "inception_4e/5x5_w"
    lr_mult: 1
    decay_mult: 1
  }
  param {
  name: "inception_4e/5x5_b"
    lr_mult: 2
    decay_mult: 0
  }
  convolution_param {
    num_output: 128
    pad: 2
    kernel_size: 5
    weight_filler {
      type: "xavier"
    }
    bias_filler {
      type: "constant"
      value: 0.2
    }
  }
}
layer {
  name: "inception_4e/relu_5x5_pos"
  type: "ReLU"
  bottom: "inception_4e/5x5_pos"
  top: "inception_4e/5x5_pos"
}
layer {
  name: "inception_4e/pool"
  type: "Pooling"
  bottom: "inception_4d/output_pos"
  top: "inception_4e/pool_pos"
  pooling_param {
    pool: MAX
    kernel_size: 3
    stride: 1
    pad: 1
  }
}
layer {
  name: "inception_4e/pool_proj_pos"
  type: "Convolution"
  bottom: "inception_4e/pool_pos"
  top: "inception_4e/pool_proj_pos"
  param {
  name: "inception_4e/pool_proj_w"
    lr_mult: 1
    decay_mult: 1
  }
  param {
  name: "inception_4e/pool_proj_b"
    lr_mult: 2
    decay_mult: 0
  }
  convolution_param {
    num_output: 128
    kernel_size: 1
    weight_filler {
      type: "xavier"
    }
    bias_filler {
      type: "constant"
      value: 0.2
    }
  }
}
layer {
  name: "inception_4e/relu_pool_proj_pos"
  type: "ReLU"
  bottom: "inception_4e/pool_proj_pos"
  top: "inception_4e/pool_proj_pos"
}
layer {
  name: "inception_4e/output_pos"
  type: "Concat"
  bottom: "inception_4e/1x1_pos"
  bottom: "inception_4e/3x3_pos"
  bottom: "inception_4e/5x5_pos"
  bottom: "inception_4e/pool_proj_pos"
  top: "inception_4e/output_pos"
}
layer {
  name: "pool4/3x3_s2_pos"
  type: "Pooling"
  bottom: "inception_4e/output_pos"
  top: "pool4/3x3_s2_pos"
  pooling_param {
    pool: MAX
    kernel_size: 3
    stride: 2
  }
}
layer {
  name: "inception_5a/1x1_pos"
  type: "Convolution"
  bottom: "pool4/3x3_s2_pos"
  top: "inception_5a/1x1_pos"
  param {
  name: "inception_5a/1x1_w"
    lr_mult: 1
    decay_mult: 1
  }
  param {
  name: "inception_5a/1x1_b"
    lr_mult: 2
    decay_mult: 0
  }
  convolution_param {
    num_output: 256
    kernel_size: 1
    weight_filler {
      type: "xavier"
    }
    bias_filler {
      type: "constant"
      value: 0.2
    }
  }
}
layer {
  name: "inception_5a/relu_1x1_pos"
  type: "ReLU"
  bottom: "inception_5a/1x1_pos"
  top: "inception_5a/1x1_pos"
}
layer {
  name: "inception_5a/3x3_reduce_pos"
  type: "Convolution"
  bottom: "pool4/3x3_s2_pos"
  top: "inception_5a/3x3_reduce_pos"
  param {
  name: "inception_5a/3x3_reduce_w"
    lr_mult: 1
    decay_mult: 1
  }
  param {
  name: "inception_5a/3x3_reduce_b"
    lr_mult: 2
    decay_mult: 0
  }
  convolution_param {
    num_output: 160
    kernel_size: 1
    weight_filler {
      type: "xavier"
    }
    bias_filler {
      type: "constant"
      value: 0.2
    }
  }
}
layer {
  name: "inception_5a/relu_3x3_reduce_pos"
  type: "ReLU"
  bottom: "inception_5a/3x3_reduce_pos"
  top: "inception_5a/3x3_reduce_pos"
}
layer {
  name: "inception_5a/3x3_pos"
  type: "Convolution"
  bottom: "inception_5a/3x3_reduce_pos"
  top: "inception_5a/3x3_pos"
  param {
  name: "inception_5a/3x3_w"
    lr_mult: 1
    decay_mult: 1
  }
  param {
  name: "inception_5a/3x3_b"
    lr_mult: 2
    decay_mult: 0
  }
  convolution_param {
    num_output: 320
    pad: 1
    kernel_size: 3
    weight_filler {
      type: "xavier"
    }
    bias_filler {
      type: "constant"
      value: 0.2
    }
  }
}
layer {
  name: "inception_5a/relu_3x3_pos"
  type: "ReLU"
  bottom: "inception_5a/3x3_pos"
  top: "inception_5a/3x3_pos"
}
layer {
  name: "inception_5a/5x5_reduce_pos"
  type: "Convolution"
  bottom: "pool4/3x3_s2_pos"
  top: "inception_5a/5x5_reduce_pos"
  param {
  name: "inception_5a/5x5_reduce_w"
    lr_mult: 1
    decay_mult: 1
  }
  param {
  name: "inception_5a/5x5_reduce_b"
    lr_mult: 2
    decay_mult: 0
  }
  convolution_param {
    num_output: 32
    kernel_size: 1
    weight_filler {
      type: "xavier"
    }
    bias_filler {
      type: "constant"
      value: 0.2
    }
  }
}
layer {
  name: "inception_5a/relu_5x5_reduce_pos"
  type: "ReLU"
  bottom: "inception_5a/5x5_reduce_pos"
  top: "inception_5a/5x5_reduce_pos"
}
layer {
  name: "inception_5a/5x5_pos"
  type: "Convolution"
  bottom: "inception_5a/5x5_reduce_pos"
  top: "inception_5a/5x5_pos"
  param {
  name: "inception_5a/5x5_1"
    lr_mult: 1
    decay_mult: 1
  }
  param {
  name: "inception_5a/5x5_b"
    lr_mult: 2
    decay_mult: 0
  }
  convolution_param {
    num_output: 128
    pad: 2
    kernel_size: 5
    weight_filler {
      type: "xavier"
    }
    bias_filler {
      type: "constant"
      value: 0.2
    }
  }
}
layer {
  name: "inception_5a/relu_5x5_pos"
  type: "ReLU"
  bottom: "inception_5a/5x5_pos"
  top: "inception_5a/5x5_pos"
}
layer {
  name: "inception_5a/pool_pos"
  type: "Pooling"
  bottom: "pool4/3x3_s2_pos"
  top: "inception_5a/pool_pos"
  pooling_param {
    pool: MAX
    kernel_size: 3
    stride: 1
    pad: 1
  }
}
layer {
  name: "inception_5a/pool_proj_pos"
  type: "Convolution"
  bottom: "inception_5a/pool_pos"
  top: "inception_5a/pool_proj_pos"
  param {
  name: "inception_5a/pool_proj_w"
    lr_mult: 1
    decay_mult: 1
  }
  param {
  name: "inception_5a/pool_proj_b"
    lr_mult: 2
    decay_mult: 0
  }
  convolution_param {
    num_output: 128
    kernel_size: 1
    weight_filler {
      type: "xavier"
    }
    bias_filler {
      type: "constant"
      value: 0.2
    }
  }
}
layer {
  name: "inception_5a/relu_pool_proj_pos"
  type: "ReLU"
  bottom: "inception_5a/pool_proj_pos"
  top: "inception_5a/pool_proj_pos"
}
layer {
  name: "inception_5a/output_pos"
  type: "Concat"
  bottom: "inception_5a/1x1_pos"
  bottom: "inception_5a/3x3_pos"
  bottom: "inception_5a/5x5_pos"
  bottom: "inception_5a/pool_proj_pos"
  top: "inception_5a/output_pos"
}
layer {
  name: "inception_5b/1x1_pos"
  type: "Convolution"
  bottom: "inception_5a/output_pos"
  top: "inception_5b/1x1_pos"
  param {
  name: "inception_5b/1x1_w"
    lr_mult: 1
    decay_mult: 1
  }
  param {
  name: "inception_5b/1x1_b"
    lr_mult: 2
    decay_mult: 0
  }
  convolution_param {
    num_output: 384
    kernel_size: 1
    weight_filler {
      type: "xavier"
    }
    bias_filler {
      type: "constant"
      value: 0.2
    }
  }
}
layer {
  name: "inception_5b/relu_1x1_pos"
  type: "ReLU"
  bottom: "inception_5b/1x1_pos"
  top: "inception_5b/1x1_pos"
}
layer {
  name: "inception_5b/3x3_reduce_pos"
  type: "Convolution"
  bottom: "inception_5a/output_pos"
  top: "inception_5b/3x3_reduce_pos"
  param {
  name: "inception_5b/3x3_reduce_w"
    lr_mult: 1
    decay_mult: 1
  }
  param {
  name: "inception_5b/3x3_reduce_b"
    lr_mult: 2
    decay_mult: 0
  }
  convolution_param {
    num_output: 192
    kernel_size: 1
    weight_filler {
      type: "xavier"
    }
    bias_filler {
      type: "constant"
      value: 0.2
    }
  }
}
layer {
  name: "inception_5b/relu_3x3_reduce"
  type: "ReLU"
  bottom: "inception_5b/3x3_reduce_pos"
  top: "inception_5b/3x3_reduce_pos"
}
layer {
  name: "inception_5b/3x3_pos"
  type: "Convolution"
  bottom: "inception_5b/3x3_reduce_pos"
  top: "inception_5b/3x3_pos"
  param {
  name: "inception_5b/3x3_w"
    lr_mult: 1
    decay_mult: 1
  }
  param {
  name: "inception_5b/3x3_b"
    lr_mult: 2
    decay_mult: 0
  }
  convolution_param {
    num_output: 384
    pad: 1
    kernel_size: 3
    weight_filler {
      type: "xavier"
    }
    bias_filler {
      type: "constant"
      value: 0.2
    }
  }
}
layer {
  name: "inception_5b/relu_3x3_pos"
  type: "ReLU"
  bottom: "inception_5b/3x3_pos"
  top: "inception_5b/3x3_pos"
}
layer {
  name: "inception_5b/5x5_reduce_pos"
  type: "Convolution"
  bottom: "inception_5a/output_pos"
  top: "inception_5b/5x5_reduce_pos"
  param {
  name: "inception_5b/5x5_reduce_w"
    lr_mult: 1
    decay_mult: 1
  }
  param {
  name: "inception_5b/5x5_reduce_b"
    lr_mult: 2
    decay_mult: 0
  }
  convolution_param {
    num_output: 48
    kernel_size: 1
    weight_filler {
      type: "xavier"
    }
    bias_filler {
      type: "constant"
      value: 0.2
    }
  }
}
layer {
  name: "inception_5b/relu_5x5_reduce_pos"
  type: "ReLU"
  bottom: "inception_5b/5x5_reduce_pos"
  top: "inception_5b/5x5_reduce_pos"
}
layer {
  name: "inception_5b/5x5_pos"
  type: "Convolution"
  bottom: "inception_5b/5x5_reduce_pos"
  top: "inception_5b/5x5_pos"
  param {
  name: "inception_5b/5x5_w"
    lr_mult: 1
    decay_mult: 1
  }
  param {
  name: "inception_5b/5x5_b"
    lr_mult: 2
    decay_mult: 0
  }
  convolution_param {
    num_output: 128
    pad: 2
    kernel_size: 5
    weight_filler {
      type: "xavier"
    }
    bias_filler {
      type: "constant"
      value: 0.2
    }
  }
}
layer {
  name: "inception_5b/relu_5x5_pos"
  type: "ReLU"
  bottom: "inception_5b/5x5_pos"
  top: "inception_5b/5x5_pos"
}
layer {
  name: "inception_5b/pool_pos"
  type: "Pooling"
  bottom: "inception_5a/output_pos"
  top: "inception_5b/pool_pos"
  pooling_param {
    pool: MAX
    kernel_size: 3
    stride: 1
    pad: 1
  }
}
layer {
  name: "inception_5b/pool_proj_pos"
  type: "Convolution"
  bottom: "inception_5b/pool_pos"
  top: "inception_5b/pool_proj_pos"
  param {
  name: "inception_5b/pool_proj_w"
    lr_mult: 1
    decay_mult: 1
  }
  param {
  name: "inception_5b/pool_proj_b"
    lr_mult: 2
    decay_mult: 0
  }
  convolution_param {
    num_output: 128
    kernel_size: 1
    weight_filler {
      type: "xavier"
    }
    bias_filler {
      type: "constant"
      value: 0.2
    }
  }
}
layer {
  name: "inception_5b/relu_pool_proj_pos"
  type: "ReLU"
  bottom: "inception_5b/pool_proj_pos"
  top: "inception_5b/pool_proj_pos"
}
layer {
  name: "inception_5b/output_pos"
  type: "Concat"
  bottom: "inception_5b/1x1_pos"
  bottom: "inception_5b/3x3_pos"
  bottom: "inception_5b/5x5_pos"
  bottom: "inception_5b/pool_proj_pos"
  top: "inception_5b/output_pos"
}
layer {
  name: "pool5/7x7_s1_pos"
  type: "Pooling"
  bottom: "inception_5b/output_pos"
  top: "pool5/7x7_s1_pos"
  pooling_param {
    pool: AVE
    kernel_size: 7
    stride: 1
  }
}
layer {
  name: "pool5/drop_7x7_s1"
  type: "Dropout"
  bottom: "pool5/7x7_s1_pos"
  top: "pool5/7x7_s1_pos"
  dropout_param {
    dropout_ratio: 0.4
  }
}

# -- PREPROCESSING FOR LOSS 3

layer {
  name: "loss3/classifierCustom_pos"
  type: "InnerProduct"
  bottom: "pool5/7x7_s1_pos"
  top: "loss3/classifierCustom_pos"
  param {
  name: "loss3/classifierCustom_w"
    lr_mult: 1
    decay_mult: 1
  }
  param {
  name: "loss3/classifierCustom_b"
    lr_mult: 2
    decay_mult: 0
  }
  inner_product_param {
    num_output: 1000
    weight_filler {
      type: "xavier"
    }
    bias_filler {
      type: "constant"
      value: 0
    }
  }
}


layer {
  name: "relu3_pos"
  type: "ReLU"
  bottom: "loss3/classifierCustom_pos"
  top: "loss3/classifierCustom_pos"
}

layer {
  name: "denom3_pos"
  type: "Reduction"
  bottom: "loss3/classifierCustom_pos"
  top: "denom3_pos"
  reduction_param {
    operation: SUMSQ
    axis: 1
  }
}
layer {
  name: "power3_pos"
  type: "Power"
  bottom: "denom3_pos"
  top: "power3_pos"
  power_param {
    power: -0.5
    shift: 9.99999996004e-13
  }
}
layer {
  name: "reshape3_pos"
  type: "Reshape"
  bottom: "power3_pos"
  top: "reshape3_pos"
  reshape_param {
    shape {
      dim: 1
    }
    axis: -1
    num_axes: 0
  }
}
layer {
  name: "tile3_pos"
  type: "Tile"
  bottom: "reshape3_pos"
  top: "tile3_pos"
  tile_param {
    axis: 1
    tiles: 1000
  }
}
layer {
  name: "elwise3_pos"
  type: "Eltwise"
  bottom: "loss3/classifierCustom_pos"
  bottom: "tile3_pos"
  top: "elwise3_pos"
  eltwise_param {
    operation: PROD
  }
}

# -- NET NEGATIVE IMAGE

layer {
  name: "conv1/7x7_s2_neg"
  type: "Convolution"
  bottom: "im_neg"
  top: "conv1/7x7_s2_neg"
  param {
    name: "conv1/7x7_s2_w"
    lr_mult: 1
    decay_mult: 1
  }
  param {
    name: "conv1/7x7_s2_b"
    lr_mult: 2
    decay_mult: 0
  }
  convolution_param {
    num_output: 64
    pad: 3
    kernel_size: 7
    stride: 2
    weight_filler {
      type: "xavier"
    }
    bias_filler {
      type: "constant"
      value: 0.2
    }
  }
}
layer {
  name: "conv1/relu_7x7_neg"
  type: "ReLU"
  bottom: "conv1/7x7_s2_neg"
  top: "conv1/7x7_s2_neg"
}
layer {
  name: "pool1/3x3_s2_neg"
  type: "Pooling"
  bottom: "conv1/7x7_s2_neg"
  top: "pool1/3x3_s2_neg"
  pooling_param {
    pool: MAX
    kernel_size: 3
    stride: 2
  }
}
layer {
  name: "pool1/norm1_neg"
  type: "LRN"
  bottom: "pool1/3x3_s2_neg"
  top: "pool1/norm1_neg"
  lrn_param {
    local_size: 5
    alpha: 0.0001
    beta: 0.75
  }
}
layer {
  name: "conv2/3x3_reduce_neg"
  type: "Convolution"
  bottom: "pool1/norm1_neg"
  top: "conv2/3x3_reduce_neg"
  param {
    name: "conv2/3x3_reduce_w"
    lr_mult: 1
    decay_mult: 1
  }
  param {
    name: "conv2/3x3_reduce_b"
    lr_mult: 2
    decay_mult: 0
  }
  convolution_param {
    num_output: 64
    kernel_size: 1
    weight_filler {
      type: "xavier"
    }
    bias_filler {
      type: "constant"
      value: 0.2
    }
  }
}
layer {
  name: "conv2/relu_3x3_reduce_neg"
  type: "ReLU"
  bottom: "conv2/3x3_reduce_neg"
  top: "conv2/3x3_reduce_neg"
}
layer {
  name: "conv2/3x3_neg"
  type: "Convolution"
  bottom: "conv2/3x3_reduce_neg"
  top: "conv2/3x3_neg"
  param {
    name: "conv2/3x3_w"
    lr_mult: 1
    decay_mult: 1
  }
  param {
    name: "conv2/3x3_b"
    lr_mult: 2
    decay_mult: 0
  }
  convolution_param {
    num_output: 192
    pad: 1
    kernel_size: 3
    weight_filler {
      type: "xavier"
    }
    bias_filler {
      type: "constant"
      value: 0.2
    }
  }
}
layer {
  name: "conv2/relu_3x3_neg"
  type: "ReLU"
  bottom: "conv2/3x3_neg"
  top: "conv2/3x3_neg"
}
layer {
  name: "conv2/norm2_neg"
  type: "LRN"
  bottom: "conv2/3x3_neg"
  top: "conv2/norm2_neg"
  lrn_param {
    local_size: 5
    alpha: 0.0001
    beta: 0.75
  }
}
layer {
  name: "pool2/3x3_s2_neg"
  type: "Pooling"
  bottom: "conv2/norm2_neg"
  top: "pool2/3x3_s2_neg"
  pooling_param {
    pool: MAX
    kernel_size: 3
    stride: 2
  }
}
layer {
  name: "inception_3a/1x1_neg"
  type: "Convolution"
  bottom: "pool2/3x3_s2_neg"
  top: "inception_3a/1x1_neg"
  param {
    name: "inception_3a/1x1_w"
    lr_mult: 1
    decay_mult: 1
  }
  param {
    name: "inception_3a/1x1_b"
    lr_mult: 2
    decay_mult: 0
  }
  convolution_param {
    num_output: 64
    kernel_size: 1
    weight_filler {
      type: "xavier"
    }
    bias_filler {
      type: "constant"
      value: 0.2
    }
  }
}
layer {
  name: "inception_3a/relu_1x1_neg"
  type: "ReLU"
  bottom: "inception_3a/1x1_neg"
  top: "inception_3a/1x1_neg"
}
layer {
  name: "inception_3a/3x3_reduce_neg"
  type: "Convolution"
  bottom: "pool2/3x3_s2_neg"
  top: "inception_3a/3x3_reduce_neg"
  param {
    name: "inception_3a/3x3_reduce_w"
    lr_mult: 1
    decay_mult: 1
  }
  param {
    name: "inception_3a/3x3_reduce_b"
    lr_mult: 2
    decay_mult: 0
  }
  convolution_param {
    num_output: 96
    kernel_size: 1
    weight_filler {
      type: "xavier"
    }
    bias_filler {
      type: "constant"
      value: 0.2
    }
  }
}
layer {
  name: "inception_3a/relu_3x3_reduce_neg"
  type: "ReLU"
  bottom: "inception_3a/3x3_reduce_neg"
  top: "inception_3a/3x3_reduce_neg"
}
layer {
  name: "inception_3a/3x3_neg"
  type: "Convolution"
  bottom: "inception_3a/3x3_reduce_neg"
  top: "inception_3a/3x3_neg"
  param {
    name: "inception_3a/3x3_w"
    lr_mult: 1
    decay_mult: 1
  }
  param {
    name: "inception_3a/3x3_b"
    lr_mult: 2
    decay_mult: 0
  }
  convolution_param {
    num_output: 128
    pad: 1
    kernel_size: 3
    weight_filler {
      type: "xavier"
    }
    bias_filler {
      type: "constant"
      value: 0.2
    }
  }
}
layer {
  name: "inception_3a/relu_3x3_neg"
  type: "ReLU"
  bottom: "inception_3a/3x3_neg"
  top: "inception_3a/3x3_neg"
}
layer {
  name: "inception_3a/5x5_reduce_neg"
  type: "Convolution"
  bottom: "pool2/3x3_s2_neg"
  top: "inception_3a/5x5_reduce_neg"
  param {
    name: "inception_3a/5x5_reduce_w"
    lr_mult: 1
    decay_mult: 1
  }
  param {
    name: "inception_3a/5x5_reduce_b"
    lr_mult: 2
    decay_mult: 0
  }
  convolution_param {
    num_output: 16
    kernel_size: 1
    weight_filler {
      type: "xavier"
    }
    bias_filler {
      type: "constant"
      value: 0.2
    }
  }
}
layer {
  name: "inception_3a/relu_5x5_reduce_neg"
  type: "ReLU"
  bottom: "inception_3a/5x5_reduce_neg"
  top: "inception_3a/5x5_reduce_neg"
}
layer {
  name: "inception_3a/5x5_neg"
  type: "Convolution"
  bottom: "inception_3a/5x5_reduce_neg"
  top: "inception_3a/5x5_neg"
  param {
    name: "inception_3a/5x5_w"
    lr_mult: 1
    decay_mult: 1
  }
  param {
    name: "inception_3a/5x5_b"
    lr_mult: 2
    decay_mult: 0
  }
  convolution_param {
    num_output: 32
    pad: 2
    kernel_size: 5
    weight_filler {
      type: "xavier"
    }
    bias_filler {
      type: "constant"
      value: 0.2
    }
  }
}
layer {
  name: "inception_3a/relu_5x5_neg"
  type: "ReLU"
  bottom: "inception_3a/5x5_neg"
  top: "inception_3a/5x5_neg"
}
layer {
  name: "inception_3a/pool_neg"
  type: "Pooling"
  bottom: "pool2/3x3_s2_neg"
  top: "inception_3a/pool_neg"
  pooling_param {
    pool: MAX
    kernel_size: 3
    stride: 1
    pad: 1
  }
}
layer {
  name: "inception_3a/pool_proj_neg"
  type: "Convolution"
  bottom: "inception_3a/pool_neg"
  top: "inception_3a/pool_proj_neg"
  param {
    name: "inception_3a/pool_proj_w"
    lr_mult: 1
    decay_mult: 1
  }
  param {
    name: "inception_3a/pool_proj_b"
    lr_mult: 2
    decay_mult: 0
  }
  convolution_param {
    num_output: 32
    kernel_size: 1
    weight_filler {
      type: "xavier"
    }
    bias_filler {
      type: "constant"
      value: 0.2
    }
  }
}
layer {
  name: "inception_3a/relu_pool_proj_neg"
  type: "ReLU"
  bottom: "inception_3a/pool_proj_neg"
  top: "inception_3a/pool_proj_neg"
}
layer {
  name: "inception_3a/output_neg"
  type: "Concat"
  bottom: "inception_3a/1x1_neg"
  bottom: "inception_3a/3x3_neg"
  bottom: "inception_3a/5x5_neg"
  bottom: "inception_3a/pool_proj_neg"
  top: "inception_3a/output_neg"
}
layer {
  name: "inception_3b/1x1_neg"
  type: "Convolution"
  bottom: "inception_3a/output_neg"
  top: "inception_3b/1x1_neg"
  param {
    name: "inception_3b/1x1_w"
    lr_mult: 1
    decay_mult: 1
  }
  param {
    name: "inception_3b/1x1_b"
    lr_mult: 2
    decay_mult: 0
  }
  convolution_param {
    num_output: 128
    kernel_size: 1
    weight_filler {
      type: "xavier"
    }
    bias_filler {
      type: "constant"
      value: 0.2
    }
  }
}
layer {
  name: "inception_3b/relu_1x1_neg"
  type: "ReLU"
  bottom: "inception_3b/1x1_neg"
  top: "inception_3b/1x1_neg"
}
layer {
  name: "inception_3b/3x3_reduce_neg"
  type: "Convolution"
  bottom: "inception_3a/output_neg"
  top: "inception_3b/3x3_reduce_neg"
  param {
    name: "inception_3b/3x3_reduce_w"
    lr_mult: 1
    decay_mult: 1
  }
  param {
    name: "inception_3b/3x3_reduce_b"
    lr_mult: 2
    decay_mult: 0
  }
  convolution_param {
    num_output: 128
    kernel_size: 1
    weight_filler {
      type: "xavier"
    }
    bias_filler {
      type: "constant"
      value: 0.2
    }
  }
}
layer {
  name: "inception_3b/relu_3x3_reduce_neg"
  type: "ReLU"
  bottom: "inception_3b/3x3_reduce_neg"
  top: "inception_3b/3x3_reduce_neg"
}
layer {
  name: "inception_3b/3x3_neg"
  type: "Convolution"
  bottom: "inception_3b/3x3_reduce_neg"
  top: "inception_3b/3x3_neg"
  param {
    name: "inception_3b/3x3_w"
    lr_mult: 1
    decay_mult: 1
  }
  param {
    name: "inception_3b/3x3_b"
    lr_mult: 2
    decay_mult: 0
  }
  convolution_param {
    num_output: 192
    pad: 1
    kernel_size: 3
    weight_filler {
      type: "xavier"
    }
    bias_filler {
      type: "constant"
      value: 0.2
    }
  }
}
layer {
  name: "inception_3b/relu_3x3_neg"
  type: "ReLU"
  bottom: "inception_3b/3x3_neg"
  top: "inception_3b/3x3_neg"
}
layer {
  name: "inception_3b/5x5_reduce_neg"
  type: "Convolution"
  bottom: "inception_3a/output_neg"
  top: "inception_3b/5x5_reduce_neg"
  param {
    name: "inception_3b/5x5_reduce_w"
    lr_mult: 1
    decay_mult: 2
  }
  param {
    name: "inception_3b/5x5_reduce_b"
    lr_mult: 2
    decay_mult: 0
  }
  convolution_param {
    num_output: 32
    kernel_size: 1
    weight_filler {
      type: "xavier"
    }
    bias_filler {
      type: "constant"
      value: 0.2
    }
  }
}
layer {
  name: "inception_3b/relu_5x5_reduce_neg"
  type: "ReLU"
  bottom: "inception_3b/5x5_reduce_neg"
  top: "inception_3b/5x5_reduce_neg"
}
layer {
  name: "inception_3b/5x5_neg"
  type: "Convolution"
  bottom: "inception_3b/5x5_reduce_neg"
  top: "inception_3b/5x5_neg"
  param {
    name: "inception_3b/5x5_w"
    lr_mult: 1
    decay_mult: 1
  }
  param {
    name: "inception_3b/5x5_b"
    lr_mult: 2
    decay_mult: 0
  }
  convolution_param {
    num_output: 96
    pad: 2
    kernel_size: 5
    weight_filler {
      type: "xavier"
    }
    bias_filler {
      type: "constant"
      value: 0.2
    }
  }
}
layer {
  name: "inception_3b/relu_5x5_neg"
  type: "ReLU"
  bottom: "inception_3b/5x5_neg"
  top: "inception_3b/5x5_neg"
}
layer {
  name: "inception_3b/pool_neg"
  type: "Pooling"
  bottom: "inception_3a/output_neg"
  top: "inception_3b/pool_neg"
  pooling_param {
    pool: MAX
    kernel_size: 3
    stride: 1
    pad: 1
  }
}
layer {
  name: "inception_3b/pool_proj_neg"
  type: "Convolution"
  bottom: "inception_3b/pool_neg"
  top: "inception_3b/pool_proj_neg"
  param {
    name: "inception_3b/pool_proj_w"
    lr_mult: 1
    decay_mult: 1
  }
  param {
    name: "inception_3b/pool_proj_b"
    lr_mult: 2
    decay_mult: 0
  }
  convolution_param {
    num_output: 64
    kernel_size: 1
    weight_filler {
      type: "xavier"
    }
    bias_filler {
      type: "constant"
      value: 0.2
    }
  }
}
layer {
  name: "inception_3b/relu_pool_proj_neg"
  type: "ReLU"
  bottom: "inception_3b/pool_proj_neg"
  top: "inception_3b/pool_proj_neg"
}
layer {
  name: "inception_3b/output_neg"
  type: "Concat"
  bottom: "inception_3b/1x1_neg"
  bottom: "inception_3b/3x3_neg"
  bottom: "inception_3b/5x5_neg"
  bottom: "inception_3b/pool_proj_neg"
  top: "inception_3b/output_neg"
}
layer {
  name: "pool3/3x3_s2_neg"
  type: "Pooling"
  bottom: "inception_3b/output_neg"
  top: "pool3/3x3_s2_neg"
  pooling_param {
    pool: MAX
    kernel_size: 3
    stride: 2
  }
}
layer {
  name: "inception_4a/1x1_neg"
  type: "Convolution"
  bottom: "pool3/3x3_s2_neg"
  top: "inception_4a/1x1_neg"
  param {
  name: "inception_4a/1x1_w"
    lr_mult: 1
    decay_mult: 1
  }
  param {
  name: "inception_4a/1x1_b"
    lr_mult: 2
    decay_mult: 0
  }
  convolution_param {
    num_output: 192
    kernel_size: 1
    weight_filler {
      type: "xavier"
    }
    bias_filler {
      type: "constant"
      value: 0.2
    }
  }
}
layer {
  name: "inception_4a/relu_1x1_neg"
  type: "ReLU"
  bottom: "inception_4a/1x1_neg"
  top: "inception_4a/1x1_neg"
}
layer {
  name: "inception_4a/3x3_reduce_neg"
  type: "Convolution"
  bottom: "pool3/3x3_s2_neg"
  top: "inception_4a/3x3_reduce_neg"
  param {
  name: "inception_4a/3x3_reduce_w"
    lr_mult: 1
    decay_mult: 1
  }
  param {
  name: "inception_4a/3x3_reduce_b"
    lr_mult: 2
    decay_mult: 0
  }
  convolution_param {
    num_output: 96
    kernel_size: 1
    weight_filler {
      type: "xavier"
    }
    bias_filler {
      type: "constant"
      value: 0.2
    }
  }
}
layer {
  name: "inception_4a/relu_3x3_reduce_neg"
  type: "ReLU"
  bottom: "inception_4a/3x3_reduce_neg"
  top: "inception_4a/3x3_reduce_neg"
}
layer {
  name: "inception_4a/3x3_neg"
  type: "Convolution"
  bottom: "inception_4a/3x3_reduce_neg"
  top: "inception_4a/3x3_neg"
  param {
  name: "inception_4a/3x3_w"
    lr_mult: 1
    decay_mult: 1
  }
  param {
  name: "inception_4a/3x3_b"
    lr_mult: 2
    decay_mult: 0
  }
  convolution_param {
    num_output: 208
    pad: 1
    kernel_size: 3
    weight_filler {
      type: "xavier"
    }
    bias_filler {
      type: "constant"
      value: 0.2
    }
  }
}
layer {
  name: "inception_4a/relu_3x3_neg"
  type: "ReLU"
  bottom: "inception_4a/3x3_neg"
  top: "inception_4a/3x3_neg"
}
layer {
  name: "inception_4a/5x5_reduce_neg"
  type: "Convolution"
  bottom: "pool3/3x3_s2_neg"
  top: "inception_4a/5x5_reduce_neg"
  param {
  name: "inception_4a/5x5_reduce_w"
    lr_mult: 1
    decay_mult: 1
  }
  param {
  name: "inception_4a/5x5_reduce_b"
    lr_mult: 2
    decay_mult: 0
  }
  convolution_param {
    num_output: 16
    kernel_size: 1
    weight_filler {
      type: "xavier"
    }
    bias_filler {
      type: "constant"
      value: 0.2
    }
  }
}
layer {
  name: "inception_4a/relu_5x5_reduce_neg"
  type: "ReLU"
  bottom: "inception_4a/5x5_reduce_neg"
  top: "inception_4a/5x5_reduce_neg"
}
layer {
  name: "inception_4a/5x5_neg"
  type: "Convolution"
  bottom: "inception_4a/5x5_reduce_neg"
  top: "inception_4a/5x5_neg"
  param {
  name: "inception_4a/5x5_w"
    lr_mult: 1
    decay_mult: 1
  }
  param {
  name: "inception_4a/5x5_b"
    lr_mult: 2
    decay_mult: 0
  }
  convolution_param {
    num_output: 48
    pad: 2
    kernel_size: 5
    weight_filler {
      type: "xavier"
    }
    bias_filler {
      type: "constant"
      value: 0.2
    }
  }
}
layer {
  name: "inception_4a/relu_5x5_neg"
  type: "ReLU"
  bottom: "inception_4a/5x5_neg"
  top: "inception_4a/5x5_neg"
}
layer {
  name: "inception_4a/pool_neg"
  type: "Pooling"
  bottom: "pool3/3x3_s2_neg"
  top: "inception_4a/pool_neg"
  pooling_param {
    pool: MAX
    kernel_size: 3
    stride: 1
    pad: 1
  }
}
layer {
  name: "inception_4a/pool_proj_neg"
  type: "Convolution"
  bottom: "inception_4a/pool_neg"
  top: "inception_4a/pool_proj_neg"
  param {
  name: "inception_4a/pool_proj_w"
    lr_mult: 1
    decay_mult: 1
  }
  param {
  name: "inception_4a/pool_proj_b"
    lr_mult: 2
    decay_mult: 0
  }
  convolution_param {
    num_output: 64
    kernel_size: 1
    weight_filler {
      type: "xavier"
    }
    bias_filler {
      type: "constant"
      value: 0.2
    }
  }
}
layer {
  name: "inception_4a/relu_pool_proj_neg"
  type: "ReLU"
  bottom: "inception_4a/pool_proj_neg"
  top: "inception_4a/pool_proj_neg"
}
layer {
  name: "inception_4a/output_neg"
  type: "Concat"
  bottom: "inception_4a/1x1_neg"
  bottom: "inception_4a/3x3_neg"
  bottom: "inception_4a/5x5_neg"
  bottom: "inception_4a/pool_proj_neg"
  top: "inception_4a/output_neg"
}

# -- PREPROCESSING FOR LOSS 1


layer {
  name: "loss1/ave_pool_neg"
  type: "Pooling"
  bottom: "inception_4a/output_neg"
  top: "loss1/ave_pool_neg"
  pooling_param {
    pool: AVE
    kernel_size: 5
    stride: 3
  }
}
layer {
  name: "loss1/conv_neg"
  type: "Convolution"
  bottom: "loss1/ave_pool_neg"
  top: "loss1/conv_neg"
  param {
  name: "loss1/conv_w"
    lr_mult: 1
    decay_mult: 1
  }
  param {
  name: "loss1/conv_b"
    lr_mult: 2
    decay_mult: 0
  }
  convolution_param {
    num_output: 128
    kernel_size: 1
    weight_filler {
      type: "xavier"
    }
    bias_filler {
      type: "constant"
      value: 0.2
    }
  }
}
layer {
  name: "loss1/relu_conv_neg"
  type: "ReLU"
  bottom: "loss1/conv_neg"
  top: "loss1/conv_neg"
}
layer {
  name: "loss1/fc_neg"
  type: "InnerProduct"
  bottom: "loss1/conv_neg"
  top: "loss1/fc_neg"
  param {
  name: "loss1/fc_w"
    lr_mult: 1
    decay_mult: 1
  }
  param {
  name: "loss1/fc_b"
    lr_mult: 2
    decay_mult: 0
  }
  inner_product_param {
    num_output: 1024
    weight_filler {
      type: "xavier"
    }
    bias_filler {
      type: "constant"
      value: 0.2
    }
  }
}
layer {
  name: "loss1/relu_fc_neg"
  type: "ReLU"
  bottom: "loss1/fc_neg"
  top: "loss1/fc_neg"
}
layer {
  name: "loss1/drop_fc_neg"
  type: "Dropout"
  bottom: "loss1/fc_neg"
  top: "loss1/fc_neg"
  dropout_param {
    dropout_ratio: 0.7
  }
}
layer {
  name: "loss1/classifierCustom_neg"
  type: "InnerProduct"
  bottom: "loss1/fc_neg"
  top: "loss1/classifierCustom_neg"
  param {
  name: "loss1/classifierCustom_w"
    lr_mult: 1
    decay_mult: 1
  }
  param {
  name: "loss1/classifierCustom_b"
    lr_mult: 2
    decay_mult: 0
  }
  inner_product_param {
    num_output: 1000
    weight_filler {
      type: "xavier"
    }
    bias_filler {
      type: "constant"
      value: 0
    }
  }
}

layer {
  name: "relu1_neg"
  type: "ReLU"
  bottom: "loss1/classifierCustom_neg"
  top: "loss1/classifierCustom_neg"
}

layer {
  name: "denom1_neg"
  type: "Reduction"
  bottom: "loss1/classifierCustom_neg"
  top: "denom1_neg"
  reduction_param {
    operation: SUMSQ
    axis: 1
  }
}
layer {
  name: "power1_neg"
  type: "Power"
  bottom: "denom1_neg"
  top: "power1_neg"
  power_param {
    power: -0.5
    shift: 9.99999996004e-13
  }
}
layer {
  name: "reshape1_neg"
  type: "Reshape"
  bottom: "power1_neg"
  top: "reshape1_neg"
  reshape_param {
    shape {
      dim: 1
    }
    axis: -1
    num_axes: 0
  }
}
layer {
  name: "tile1_neg"
  type: "Tile"
  bottom: "reshape1_neg"
  top: "tile1_neg"
  tile_param {
    axis: 1
    tiles: 1000
  }
}
layer {
  name: "elwise1_neg"
  type: "Eltwise"
  bottom: "loss1/classifierCustom_neg"
  bottom: "tile1_neg"
  top: "elwise1_neg"
  eltwise_param {
    operation: PROD
  }
}



layer {
  name: "inception_4b/1x1_neg"
  type: "Convolution"
  bottom: "inception_4a/output_neg"
  top: "inception_4b/1x1_neg"
  param {
  name: "inception_4b/1x1_w"
    lr_mult: 1
    decay_mult: 1
  }
  param {
  name: "inception_4b/1x1_b"
    lr_mult: 2
    decay_mult: 0
  }
  convolution_param {
    num_output: 160
    kernel_size: 1
    weight_filler {
      type: "xavier"
    }
    bias_filler {
      type: "constant"
      value: 0.2
    }
  }
}
layer {
  name: "inception_4b/relu_1x1_neg"
  type: "ReLU"
  bottom: "inception_4b/1x1_neg"
  top: "inception_4b/1x1_neg"
}
layer {
  name: "inception_4b/3x3_reduce_neg"
  type: "Convolution"
  bottom: "inception_4a/output_neg"
  top: "inception_4b/3x3_reduce_neg"
  param {
  name: "inception_4b/3x3_reduce_w"
    lr_mult: 1
    decay_mult: 1
  }
  param {
  name: "inception_4b/3x3_reduce_b"
    lr_mult: 2
    decay_mult: 0
  }
  convolution_param {
    num_output: 112
    kernel_size: 1
    weight_filler {
      type: "xavier"
    }
    bias_filler {
      type: "constant"
      value: 0.2
    }
  }
}
layer {
  name: "inception_4b/relu_3x3_reduce_neg"
  type: "ReLU"
  bottom: "inception_4b/3x3_reduce_neg"
  top: "inception_4b/3x3_reduce_neg"
}
layer {
  name: "inception_4b/3x3_neg"
  type: "Convolution"
  bottom: "inception_4b/3x3_reduce_neg"
  top: "inception_4b/3x3_neg"
  param {
  name: "inception_4b/3x3_w"
    lr_mult: 1
    decay_mult: 1
  }
  param {
  name: "inception_4b/3x3_b"
    lr_mult: 2
    decay_mult: 0
  }
  convolution_param {
    num_output: 224
    pad: 1
    kernel_size: 3
    weight_filler {
      type: "xavier"
    }
    bias_filler {
      type: "constant"
      value: 0.2
    }
  }
}
layer {
  name: "inception_4b/relu_3x3_neg"
  type: "ReLU"
  bottom: "inception_4b/3x3_neg"
  top: "inception_4b/3x3_neg"
}
layer {
  name: "inception_4b/5x5_reduce_neg"
  type: "Convolution"
  bottom: "inception_4a/output_neg"
  top: "inception_4b/5x5_reduce_neg"
  param {
  name: "inception_4b/5x5_reduce_w"
    lr_mult: 1
    decay_mult: 1
  }
  param {
  name: "inception_4b/5x5_reduce_b"
    lr_mult: 2
    decay_mult: 0
  }
  convolution_param {
    num_output: 24
    kernel_size: 1
    weight_filler {
      type: "xavier"
    }
    bias_filler {
      type: "constant"
      value: 0.2
    }
  }
}
layer {
  name: "inception_4b/relu_5x5_reduce_neg"
  type: "ReLU"
  bottom: "inception_4b/5x5_reduce_neg"
  top: "inception_4b/5x5_reduce_neg"
}
layer {
  name: "inception_4b/5x5_neg"
  type: "Convolution"
  bottom: "inception_4b/5x5_reduce_neg"
  top: "inception_4b/5x5_neg"
  param {
  name: "inception_4b/5x5_w"
    lr_mult: 1
    decay_mult: 1
  }
  param {
  name: "inception_4b/5x5_b"
    lr_mult: 2
    decay_mult: 0
  }
  convolution_param {
    num_output: 64
    pad: 2
    kernel_size: 5
    weight_filler {
      type: "xavier"
    }
    bias_filler {
      type: "constant"
      value: 0.2
    }
  }
}
layer {
  name: "inception_4b/relu_5x5_neg"
  type: "ReLU"
  bottom: "inception_4b/5x5_neg"
  top: "inception_4b/5x5_neg"
}
layer {
  name: "inception_4b/pool_neg"
  type: "Pooling"
  bottom: "inception_4a/output_neg"
  top: "inception_4b/pool_neg"
  pooling_param {
    pool: MAX
    kernel_size: 3
    stride: 1
    pad: 1
  }
}
layer {
  name: "inception_4b/pool_proj_neg"
  type: "Convolution"
  bottom: "inception_4b/pool_neg"
  top: "inception_4b/pool_proj_neg"
  param {
  name: "inception_4b/pool_proj_w"
    lr_mult: 1
    decay_mult: 1
  }
  param {
  name: "inception_4b/pool_proj_b"
    lr_mult: 2
    decay_mult: 0
  }
  convolution_param {
    num_output: 64
    kernel_size: 1
    weight_filler {
      type: "xavier"
    }
    bias_filler {
      type: "constant"
      value: 0.2
    }
  }
}
layer {
  name: "inception_4b/relu_pool_proj_neg"
  type: "ReLU"
  bottom: "inception_4b/pool_proj_neg"
  top: "inception_4b/pool_proj_neg"
}
layer {
  name: "inception_4b/output_neg"
  type: "Concat"
  bottom: "inception_4b/1x1_neg"
  bottom: "inception_4b/3x3_neg"
  bottom: "inception_4b/5x5_neg"
  bottom: "inception_4b/pool_proj_neg"
  top: "inception_4b/output_neg"
}
layer {
  name: "inception_4c/1x1_neg"
  type: "Convolution"
  bottom: "inception_4b/output_neg"
  top: "inception_4c/1x1_neg"
  param {
  name: "inception_4c/1x1_w"
    lr_mult: 1
    decay_mult: 2
  }
  param {
  name: "inception_4c/1x1_b"
    lr_mult: 2
    decay_mult: 0
  }
  convolution_param {
    num_output: 128
    kernel_size: 1
    weight_filler {
      type: "xavier"
    }
    bias_filler {
      type: "constant"
      value: 0.2
    }
  }
}
layer {
  name: "inception_4c/relu_1x1_neg"
  type: "ReLU"
  bottom: "inception_4c/1x1_neg"
  top: "inception_4c/1x1_neg"
}
layer {
  name: "inception_4c/3x3_reduce_neg"
  type: "Convolution"
  bottom: "inception_4b/output_neg"
  top: "inception_4c/3x3_reduce_neg"
  param {
  name: "inception_4c/3x3_reduce_w"
    lr_mult: 1
    decay_mult: 1
  }
  param {
  name: "inception_4c/3x3_reduce_b"
    lr_mult: 2
    decay_mult: 0
  }
  convolution_param {
    num_output: 128
    kernel_size: 1
    weight_filler {
      type: "xavier"
    }
    bias_filler {
      type: "constant"
      value: 0.2
    }
  }
}
layer {
  name: "inception_4c/relu_3x3_reduce_neg"
  type: "ReLU"
  bottom: "inception_4c/3x3_reduce_neg"
  top: "inception_4c/3x3_reduce_neg"
}
layer {
  name: "inception_4c/3x3_neg"
  type: "Convolution"
  bottom: "inception_4c/3x3_reduce_neg"
  top: "inception_4c/3x3_neg"
  param {
  name: "inception_4c/3x3_w"
    lr_mult: 1
    decay_mult: 1
  }
  param {
  name: "inception_4c/3x3_b"
    lr_mult: 2
    decay_mult: 0
  }
  convolution_param {
    num_output: 256
    pad: 1
    kernel_size: 3
    weight_filler {
      type: "xavier"
    }
    bias_filler {
      type: "constant"
      value: 0.2
    }
  }
}
layer {
  name: "inception_4c/relu_3x3_neg"
  type: "ReLU"
  bottom: "inception_4c/3x3_neg"
  top: "inception_4c/3x3_neg"
}
layer {
  name: "inception_4c/5x5_reduce_neg"
  type: "Convolution"
  bottom: "inception_4b/output_neg"
  top: "inception_4c/5x5_reduce_neg"
  param {
  name: "inception_4c/5x5_reduce_w"
    lr_mult: 1
    decay_mult: 1
  }
  param {
  name: "inception_4c/5x5_reduce_b"
    lr_mult: 2
    decay_mult: 0
  }
  convolution_param {
    num_output: 24
    kernel_size: 1
    weight_filler {
      type: "xavier"
    }
    bias_filler {
      type: "constant"
      value: 0.2
    }
  }
}
layer {
  name: "inception_4c/relu_5x5_reduce_neg"
  type: "ReLU"
  bottom: "inception_4c/5x5_reduce_neg"
  top: "inception_4c/5x5_reduce_neg"
}
layer {
  name: "inception_4c/5x5_neg"
  type: "Convolution"
  bottom: "inception_4c/5x5_reduce_neg"
  top: "inception_4c/5x5_neg"
  param {
  name: "inception_4c/5x5_w"
    lr_mult: 1
    decay_mult: 1
  }
  param {
  name: "inception_4c/5x5_b"
    lr_mult: 2
    decay_mult: 0
  }
  convolution_param {
    num_output: 64
    pad: 2
    kernel_size: 5
    weight_filler {
      type: "xavier"
    }
    bias_filler {
      type: "constant"
      value: 0.2
    }
  }
}
layer {
  name: "inception_4c/relu_5x5_neg"
  type: "ReLU"
  bottom: "inception_4c/5x5_neg"
  top: "inception_4c/5x5_neg"
}
layer {
  name: "inception_4c/pool_neg"
  type: "Pooling"
  bottom: "inception_4b/output_neg"
  top: "inception_4c/pool_neg"
  pooling_param {
    pool: MAX
    kernel_size: 3
    stride: 1
    pad: 1
  }
}
layer {
  name: "inception_4c/pool_proj_neg"
  type: "Convolution"
  bottom: "inception_4c/pool_neg"
  top: "inception_4c/pool_proj_neg"
  param {
  name: "inception_4c/pool_proj_w"
    lr_mult: 1
    decay_mult: 1
  }
  param {
  name: "inception_4c/pool_proj_b"
    lr_mult: 2
    decay_mult: 0
  }
  convolution_param {
    num_output: 64
    kernel_size: 1
    weight_filler {
      type: "xavier"
    }
    bias_filler {
      type: "constant"
      value: 0.2
    }
  }
}
layer {
  name: "inception_4c/relu_pool_proj_neg"
  type: "ReLU"
  bottom: "inception_4c/pool_proj_neg"
  top: "inception_4c/pool_proj_neg"
}
layer {
  name: "inception_4c/output_neg"
  type: "Concat"
  bottom: "inception_4c/1x1_neg"
  bottom: "inception_4c/3x3_neg"
  bottom: "inception_4c/5x5_neg"
  bottom: "inception_4c/pool_proj_neg"
  top: "inception_4c/output_neg"
}
layer {
  name: "inception_4d/1x1_neg"
  type: "Convolution"
  bottom: "inception_4c/output_neg"
  top: "inception_4d/1x1_neg"
  param {
  name: "inception_4d/1x1_w"
    lr_mult: 1
    decay_mult: 1
  }
  param {
  name: "inception_4d/1x1_b"
    lr_mult: 2
    decay_mult: 0
  }
  convolution_param {
    num_output: 112
    kernel_size: 1
    weight_filler {
      type: "xavier"
    }
    bias_filler {
      type: "constant"
      value: 0.2
    }
  }
}
layer {
  name: "inception_4d/relu_1x1_neg"
  type: "ReLU"
  bottom: "inception_4d/1x1_neg"
  top: "inception_4d/1x1_neg"
}
layer {
  name: "inception_4d/3x3_reduce_neg"
  type: "Convolution"
  bottom: "inception_4c/output_neg"
  top: "inception_4d/3x3_reduce_neg"
  param {
  name: "inception_4d/3x3_reduce_w"
    lr_mult: 1
    decay_mult: 1
  }
  param {
  name: "inception_4d/3x3_reduce_b"
    lr_mult: 2
    decay_mult: 0
  }
  convolution_param {
    num_output: 144
    kernel_size: 1
    weight_filler {
      type: "xavier"
    }
    bias_filler {
      type: "constant"
      value: 0.2
    }
  }
}
layer {
  name: "inception_4d/relu_3x3_reduce_neg"
  type: "ReLU"
  bottom: "inception_4d/3x3_reduce_neg"
  top: "inception_4d/3x3_reduce_neg"
}
layer {
  name: "inception_4d/3x3_neg"
  type: "Convolution"
  bottom: "inception_4d/3x3_reduce_neg"
  top: "inception_4d/3x3_neg"
  param {
  name: "inception_4d/3x3_w"
    lr_mult: 1
    decay_mult: 1
  }
  param {
  name: "inception_4d/3x3_b"
    lr_mult: 2
    decay_mult: 0
  }
  convolution_param {
    num_output: 288
    pad: 1
    kernel_size: 3
    weight_filler {
      type: "xavier"
    }
    bias_filler {
      type: "constant"
      value: 0.2
    }
  }
}
layer {
  name: "inception_4d/relu_3x3_neg"
  type: "ReLU"
  bottom: "inception_4d/3x3_neg"
  top: "inception_4d/3x3_neg"
}
layer {
  name: "inception_4d/5x5_reduce_neg"
  type: "Convolution"
  bottom: "inception_4c/output_neg"
  top: "inception_4d/5x5_reduce_neg"
  param {
  name: "inception_4d/5x5_reduce_w"
    lr_mult: 1
    decay_mult: 1
  }
  param {
  name: "inception_4d/5x5_reduce_b"
    lr_mult: 2
    decay_mult: 0
  }
  convolution_param {
    num_output: 32
    kernel_size: 1
    weight_filler {
      type: "xavier"
    }
    bias_filler {
      type: "constant"
      value: 0.2
    }
  }
}
layer {
  name: "inception_4d/relu_5x5_reduce_neg"
  type: "ReLU"
  bottom: "inception_4d/5x5_reduce_neg"
  top: "inception_4d/5x5_reduce_neg"
}
layer {
  name: "inception_4d/5x5_neg"
  type: "Convolution"
  bottom: "inception_4d/5x5_reduce_neg"
  top: "inception_4d/5x5_neg"
  param {
  name: "inception_4d/5x5_w"
    lr_mult: 1
    decay_mult: 1
  }
  param {
  name: "inception_4d/5x5_b"
    lr_mult: 2
    decay_mult: 0
  }
  convolution_param {
    num_output: 64
    pad: 2
    kernel_size: 5
    weight_filler {
      type: "xavier"
    }
    bias_filler {
      type: "constant"
      value: 0.2
    }
  }
}
layer {
  name: "inception_4d/relu_5x5_neg"
  type: "ReLU"
  bottom: "inception_4d/5x5_neg"
  top: "inception_4d/5x5_neg"
}
layer {
  name: "inception_4d/pool_neg"
  type: "Pooling"
  bottom: "inception_4c/output_neg"
  top: "inception_4d/pool_neg"
  pooling_param {
    pool: MAX
    kernel_size: 3
    stride: 1
    pad: 1
  }
}
layer {
  name: "inception_4d/pool_proj_neg"
  type: "Convolution"
  bottom: "inception_4d/pool_neg"
  top: "inception_4d/pool_proj_neg"
  param {
  name: "inception_4d/pool_proj_w"
    lr_mult: 1
    decay_mult: 1
  }
  param {
  name: "inception_4d/pool_proj_b"
    lr_mult: 2
    decay_mult: 0
  }
  convolution_param {
    num_output: 64
    kernel_size: 1
    weight_filler {
      type: "xavier"
    }
    bias_filler {
      type: "constant"
      value: 0.2
    }
  }
}
layer {
  name: "inception_4d/relu_pool_proj_neg"
  type: "ReLU"
  bottom: "inception_4d/pool_proj_neg"
  top: "inception_4d/pool_proj_neg"
}
layer {
  name: "inception_4d/output_neg"
  type: "Concat"
  bottom: "inception_4d/1x1_neg"
  bottom: "inception_4d/3x3_neg"
  bottom: "inception_4d/5x5_neg"
  bottom: "inception_4d/pool_proj_neg"
  top: "inception_4d/output_neg"
}


# -- PREPROCESSING FOR LOSS 2

layer {
  name: "loss2/ave_pool_neg"
  type: "Pooling"
  bottom: "inception_4d/output_neg"
  top: "loss2/ave_pool_neg"
  pooling_param {
    pool: AVE
    kernel_size: 5
    stride: 3
  }
}
layer {
  name: "loss2/conv_neg"
  type: "Convolution"
  bottom: "loss2/ave_pool_neg"
  top: "loss2/conv_neg"
  param {
  name: "loss2/conv_w"
    lr_mult: 1
    decay_mult: 1
  }
  param {
  name: "loss2/conv_b"
    lr_mult: 2
    decay_mult: 0
  }
  convolution_param {
    num_output: 128
    kernel_size: 1
    weight_filler {
      type: "xavier"
    }
    bias_filler {
      type: "constant"
      value: 0.2
    }
  }
}
layer {
  name: "loss2/relu_conv_neg"
  type: "ReLU"
  bottom: "loss2/conv_neg"
  top: "loss2/conv_neg"
}
layer {
  name: "loss2/fc_neg"
  type: "InnerProduct"
  bottom: "loss2/conv_neg"
  top: "loss2/fc_neg"
  param {
  name: "loss2/fc_w"
    lr_mult: 1
    decay_mult: 1
  }
  param {
  name: "loss2/fc_b"
    lr_mult: 2
    decay_mult: 0
  }
  inner_product_param {
    num_output: 1024
    weight_filler {
      type: "xavier"
    }
    bias_filler {
      type: "constant"
      value: 0.2
    }
  }
}
layer {
  name: "loss2/relu_fc_neg"
  type: "ReLU"
  bottom: "loss2/fc_neg"
  top: "loss2/fc_neg"
}
layer {
  name: "loss2/drop_fc_neg"
  type: "Dropout"
  bottom: "loss2/fc_neg"
  top: "loss2/fc_neg"
  dropout_param {
    dropout_ratio: 0.7
  }
}
layer {
  name: "loss2/classifierCustom_neg"
  type: "InnerProduct"
  bottom: "loss2/fc_neg"
  top: "loss2/classifierCustom_neg"
  param {
  name: "loss2/classifierCustom_w"
    lr_mult: 1
    decay_mult: 1
  }
  param {
  name: "loss2/classifierCustom_b"
    lr_mult: 2
    decay_mult: 0
  }
  inner_product_param {
    num_output: 1000
    weight_filler {
      type: "xavier"
    }
    bias_filler {
      type: "constant"
      value: 0
    }
  }
}


layer {
  name: "relu2_neg"
  type: "ReLU"
  bottom: "loss2/classifierCustom_neg"
  top: "loss2/classifierCustom_neg"
}

layer {
  name: "denom2"
  type: "Reduction"
  bottom: "loss2/classifierCustom_neg"
  top: "denom2_neg"
  reduction_param {
    operation: SUMSQ
    axis: 1
  }
}
layer {
  name: "power2_neg"
  type: "Power"
  bottom: "denom2_neg"
  top: "power2_neg"
  power_param {
    power: -0.5
    shift: 9.99999996004e-13
  }
}
layer {
  name: "reshape2_neg"
  type: "Reshape"
  bottom: "power2_neg"
  top: "reshape2_neg"
  reshape_param {
    shape {
      dim: 1
    }
    axis: -1
    num_axes: 0
  }
}
layer {
  name: "tile2_neg"
  type: "Tile"
  bottom: "reshape2_neg"
  top: "tile2_neg"
  tile_param {
    axis: 1
    tiles: 1000
  }
}
layer {
  name: "elwise2_neg"
  type: "Eltwise"
  bottom: "loss2/classifierCustom_neg"
  bottom: "tile2_neg"
  top: "elwise2_neg"
  eltwise_param {
    operation: PROD
  }
}



layer {
  name: "inception_4e/1x1_neg"
  type: "Convolution"
  bottom: "inception_4d/output_neg"
  top: "inception_4e/1x1_neg"
  param {
  name: "inception_4e/1x1_w"
    lr_mult: 1
    decay_mult: 1
  }
  param {
  name: "inception_4e/1x1_b"
    lr_mult: 2
    decay_mult: 0
  }
  convolution_param {
    num_output: 256
    kernel_size: 1
    weight_filler {
      type: "xavier"
    }
    bias_filler {
      type: "constant"
      value: 0.2
    }
  }
}
layer {
  name: "inception_4e/relu_1x1_neg"
  type: "ReLU"
  bottom: "inception_4e/1x1_neg"
  top: "inception_4e/1x1_neg"
}
layer {
  name: "inception_4e/3x3_reduce_neg"
  type: "Convolution"
  bottom: "inception_4d/output_neg"
  top: "inception_4e/3x3_reduce_neg"
  param {
  name: "inception_4e/3x3_reduce_w"
    lr_mult: 1
    decay_mult: 1
  }
  param {
  name: "inception_4e/3x3_reduce_b"
    lr_mult: 2
    decay_mult: 0
  }
  convolution_param {
    num_output: 160
    kernel_size: 1
    weight_filler {
      type: "xavier"
    }
    bias_filler {
      type: "constant"
      value: 0.2
    }
  }
}
layer {
  name: "inception_4e/relu_3x3_reduce_neg"
  type: "ReLU"
  bottom: "inception_4e/3x3_reduce_neg"
  top: "inception_4e/3x3_reduce_neg"
}
layer {
  name: "inception_4e/3x3_neg"
  type: "Convolution"
  bottom: "inception_4e/3x3_reduce_neg"
  top: "inception_4e/3x3_neg"
  param {
  name: "inception_4e/3x3_w"
    lr_mult: 1
    decay_mult: 1
  }
  param {
  name: "inception_4e/3x3_b"
    lr_mult: 2
    decay_mult: 0
  }
  convolution_param {
    num_output: 320
    pad: 1
    kernel_size: 3
    weight_filler {
      type: "xavier"
    }
    bias_filler {
      type: "constant"
      value: 0.2
    }
  }
}
layer {
  name: "inception_4e/relu_3x3_neg"
  type: "ReLU"
  bottom: "inception_4e/3x3_neg"
  top: "inception_4e/3x3_neg"
}
layer {
  name: "inception_4e/5x5_reduce_neg"
  type: "Convolution"
  bottom: "inception_4d/output_neg"
  top: "inception_4e/5x5_reduce_neg"
  param {
  name: "inception_4e/5x5_reduce_w"
    lr_mult: 1
    decay_mult: 1
  }
  param {
  name: "inception_4e/5x5_reduce_b"
    lr_mult: 2
    decay_mult: 0
  }
  convolution_param {
    num_output: 32
    kernel_size: 1
    weight_filler {
      type: "xavier"
    }
    bias_filler {
      type: "constant"
      value: 0.2
    }
  }
}
layer {
  name: "inception_4e/relu_5x5_reduce_neg"
  type: "ReLU"
  bottom: "inception_4e/5x5_reduce_neg"
  top: "inception_4e/5x5_reduce_neg"
}
layer {
  name: "inception_4e/5x5_neg"
  type: "Convolution"
  bottom: "inception_4e/5x5_reduce_neg"
  top: "inception_4e/5x5_neg"
  param {
  name: "inception_4e/5x5_w"
    lr_mult: 1
    decay_mult: 1
  }
  param {
  name: "inception_4e/5x5_b"
    lr_mult: 2
    decay_mult: 0
  }
  convolution_param {
    num_output: 128
    pad: 2
    kernel_size: 5
    weight_filler {
      type: "xavier"
    }
    bias_filler {
      type: "constant"
      value: 0.2
    }
  }
}
layer {
  name: "inception_4e/relu_5x5_neg"
  type: "ReLU"
  bottom: "inception_4e/5x5_neg"
  top: "inception_4e/5x5_neg"
}
layer {
  name: "inception_4e/pool"
  type: "Pooling"
  bottom: "inception_4d/output_neg"
  top: "inception_4e/pool_neg"
  pooling_param {
    pool: MAX
    kernel_size: 3
    stride: 1
    pad: 1
  }
}
layer {
  name: "inception_4e/pool_proj_neg"
  type: "Convolution"
  bottom: "inception_4e/pool_neg"
  top: "inception_4e/pool_proj_neg"
  param {
  name: "inception_4e/pool_proj_w"
    lr_mult: 1
    decay_mult: 1
  }
  param {
  name: "inception_4e/pool_proj_b"
    lr_mult: 2
    decay_mult: 0
  }
  convolution_param {
    num_output: 128
    kernel_size: 1
    weight_filler {
      type: "xavier"
    }
    bias_filler {
      type: "constant"
      value: 0.2
    }
  }
}
layer {
  name: "inception_4e/relu_pool_proj_neg"
  type: "ReLU"
  bottom: "inception_4e/pool_proj_neg"
  top: "inception_4e/pool_proj_neg"
}
layer {
  name: "inception_4e/output_neg"
  type: "Concat"
  bottom: "inception_4e/1x1_neg"
  bottom: "inception_4e/3x3_neg"
  bottom: "inception_4e/5x5_neg"
  bottom: "inception_4e/pool_proj_neg"
  top: "inception_4e/output_neg"
}
layer {
  name: "pool4/3x3_s2_neg"
  type: "Pooling"
  bottom: "inception_4e/output_neg"
  top: "pool4/3x3_s2_neg"
  pooling_param {
    pool: MAX
    kernel_size: 3
    stride: 2
  }
}
layer {
  name: "inception_5a/1x1_neg"
  type: "Convolution"
  bottom: "pool4/3x3_s2_neg"
  top: "inception_5a/1x1_neg"
  param {
  name: "inception_5a/1x1_w"
    lr_mult: 1
    decay_mult: 1
  }
  param {
  name: "inception_5a/1x1_b"
    lr_mult: 2
    decay_mult: 0
  }
  convolution_param {
    num_output: 256
    kernel_size: 1
    weight_filler {
      type: "xavier"
    }
    bias_filler {
      type: "constant"
      value: 0.2
    }
  }
}
layer {
  name: "inception_5a/relu_1x1_neg"
  type: "ReLU"
  bottom: "inception_5a/1x1_neg"
  top: "inception_5a/1x1_neg"
}
layer {
  name: "inception_5a/3x3_reduce_neg"
  type: "Convolution"
  bottom: "pool4/3x3_s2_neg"
  top: "inception_5a/3x3_reduce_neg"
  param {
  name: "inception_5a/3x3_reduce_w"
    lr_mult: 1
    decay_mult: 1
  }
  param {
  name: "inception_5a/3x3_reduce_b"
    lr_mult: 2
    decay_mult: 0
  }
  convolution_param {
    num_output: 160
    kernel_size: 1
    weight_filler {
      type: "xavier"
    }
    bias_filler {
      type: "constant"
      value: 0.2
    }
  }
}
layer {
  name: "inception_5a/relu_3x3_reduce_neg"
  type: "ReLU"
  bottom: "inception_5a/3x3_reduce_neg"
  top: "inception_5a/3x3_reduce_neg"
}
layer {
  name: "inception_5a/3x3_neg"
  type: "Convolution"
  bottom: "inception_5a/3x3_reduce_neg"
  top: "inception_5a/3x3_neg"
  param {
  name: "inception_5a/3x3_w"
    lr_mult: 1
    decay_mult: 1
  }
  param {
  name: "inception_5a/3x3_b"
    lr_mult: 2
    decay_mult: 0
  }
  convolution_param {
    num_output: 320
    pad: 1
    kernel_size: 3
    weight_filler {
      type: "xavier"
    }
    bias_filler {
      type: "constant"
      value: 0.2
    }
  }
}
layer {
  name: "inception_5a/relu_3x3_neg"
  type: "ReLU"
  bottom: "inception_5a/3x3_neg"
  top: "inception_5a/3x3_neg"
}
layer {
  name: "inception_5a/5x5_reduce_neg"
  type: "Convolution"
  bottom: "pool4/3x3_s2_neg"
  top: "inception_5a/5x5_reduce_neg"
  param {
  name: "inception_5a/5x5_reduce_w"
    lr_mult: 1
    decay_mult: 1
  }
  param {
  name: "inception_5a/5x5_reduce_b"
    lr_mult: 2
    decay_mult: 0
  }
  convolution_param {
    num_output: 32
    kernel_size: 1
    weight_filler {
      type: "xavier"
    }
    bias_filler {
      type: "constant"
      value: 0.2
    }
  }
}
layer {
  name: "inception_5a/relu_5x5_reduce_neg"
  type: "ReLU"
  bottom: "inception_5a/5x5_reduce_neg"
  top: "inception_5a/5x5_reduce_neg"
}
layer {
  name: "inception_5a/5x5_neg"
  type: "Convolution"
  bottom: "inception_5a/5x5_reduce_neg"
  top: "inception_5a/5x5_neg"
  param {
  name: "inception_5a/5x5_1"
    lr_mult: 1
    decay_mult: 1
  }
  param {
  name: "inception_5a/5x5_b"
    lr_mult: 2
    decay_mult: 0
  }
  convolution_param {
    num_output: 128
    pad: 2
    kernel_size: 5
    weight_filler {
      type: "xavier"
    }
    bias_filler {
      type: "constant"
      value: 0.2
    }
  }
}
layer {
  name: "inception_5a/relu_5x5_neg"
  type: "ReLU"
  bottom: "inception_5a/5x5_neg"
  top: "inception_5a/5x5_neg"
}
layer {
  name: "inception_5a/pool_neg"
  type: "Pooling"
  bottom: "pool4/3x3_s2_neg"
  top: "inception_5a/pool_neg"
  pooling_param {
    pool: MAX
    kernel_size: 3
    stride: 1
    pad: 1
  }
}
layer {
  name: "inception_5a/pool_proj_neg"
  type: "Convolution"
  bottom: "inception_5a/pool_neg"
  top: "inception_5a/pool_proj_neg"
  param {
  name: "inception_5a/pool_proj_w"
    lr_mult: 1
    decay_mult: 1
  }
  param {
  name: "inception_5a/pool_proj_b"
    lr_mult: 2
    decay_mult: 0
  }
  convolution_param {
    num_output: 128
    kernel_size: 1
    weight_filler {
      type: "xavier"
    }
    bias_filler {
      type: "constant"
      value: 0.2
    }
  }
}
layer {
  name: "inception_5a/relu_pool_proj_neg"
  type: "ReLU"
  bottom: "inception_5a/pool_proj_neg"
  top: "inception_5a/pool_proj_neg"
}
layer {
  name: "inception_5a/output_neg"
  type: "Concat"
  bottom: "inception_5a/1x1_neg"
  bottom: "inception_5a/3x3_neg"
  bottom: "inception_5a/5x5_neg"
  bottom: "inception_5a/pool_proj_neg"
  top: "inception_5a/output_neg"
}
layer {
  name: "inception_5b/1x1_neg"
  type: "Convolution"
  bottom: "inception_5a/output_neg"
  top: "inception_5b/1x1_neg"
  param {
  name: "inception_5b/1x1_w"
    lr_mult: 1
    decay_mult: 1
  }
  param {
  name: "inception_5b/1x1_b"
    lr_mult: 2
    decay_mult: 0
  }
  convolution_param {
    num_output: 384
    kernel_size: 1
    weight_filler {
      type: "xavier"
    }
    bias_filler {
      type: "constant"
      value: 0.2
    }
  }
}
layer {
  name: "inception_5b/relu_1x1_neg"
  type: "ReLU"
  bottom: "inception_5b/1x1_neg"
  top: "inception_5b/1x1_neg"
}
layer {
  name: "inception_5b/3x3_reduce_neg"
  type: "Convolution"
  bottom: "inception_5a/output_neg"
  top: "inception_5b/3x3_reduce_neg"
  param {
  name: "inception_5b/3x3_reduce_w"
    lr_mult: 1
    decay_mult: 1
  }
  param {
  name: "inception_5b/3x3_reduce_b"
    lr_mult: 2
    decay_mult: 0
  }
  convolution_param {
    num_output: 192
    kernel_size: 1
    weight_filler {
      type: "xavier"
    }
    bias_filler {
      type: "constant"
      value: 0.2
    }
  }
}
layer {
  name: "inception_5b/relu_3x3_reduce"
  type: "ReLU"
  bottom: "inception_5b/3x3_reduce_neg"
  top: "inception_5b/3x3_reduce_neg"
}
layer {
  name: "inception_5b/3x3_neg"
  type: "Convolution"
  bottom: "inception_5b/3x3_reduce_neg"
  top: "inception_5b/3x3_neg"
  param {
  name: "inception_5b/3x3_w"
    lr_mult: 1
    decay_mult: 1
  }
  param {
  name: "inception_5b/3x3_b"
    lr_mult: 2
    decay_mult: 0
  }
  convolution_param {
    num_output: 384
    pad: 1
    kernel_size: 3
    weight_filler {
      type: "xavier"
    }
    bias_filler {
      type: "constant"
      value: 0.2
    }
  }
}
layer {
  name: "inception_5b/relu_3x3_neg"
  type: "ReLU"
  bottom: "inception_5b/3x3_neg"
  top: "inception_5b/3x3_neg"
}
layer {
  name: "inception_5b/5x5_reduce_neg"
  type: "Convolution"
  bottom: "inception_5a/output_neg"
  top: "inception_5b/5x5_reduce_neg"
  param {
  name: "inception_5b/5x5_reduce_w"
    lr_mult: 1
    decay_mult: 1
  }
  param {
  name: "inception_5b/5x5_reduce_b"
    lr_mult: 2
    decay_mult: 0
  }
  convolution_param {
    num_output: 48
    kernel_size: 1
    weight_filler {
      type: "xavier"
    }
    bias_filler {
      type: "constant"
      value: 0.2
    }
  }
}
layer {
  name: "inception_5b/relu_5x5_reduce_neg"
  type: "ReLU"
  bottom: "inception_5b/5x5_reduce_neg"
  top: "inception_5b/5x5_reduce_neg"
}
layer {
  name: "inception_5b/5x5_neg"
  type: "Convolution"
  bottom: "inception_5b/5x5_reduce_neg"
  top: "inception_5b/5x5_neg"
  param {
  name: "inception_5b/5x5_w"
    lr_mult: 1
    decay_mult: 1
  }
  param {
  name: "inception_5b/5x5_b"
    lr_mult: 2
    decay_mult: 0
  }
  convolution_param {
    num_output: 128
    pad: 2
    kernel_size: 5
    weight_filler {
      type: "xavier"
    }
    bias_filler {
      type: "constant"
      value: 0.2
    }
  }
}
layer {
  name: "inception_5b/relu_5x5_neg"
  type: "ReLU"
  bottom: "inception_5b/5x5_neg"
  top: "inception_5b/5x5_neg"
}
layer {
  name: "inception_5b/pool_neg"
  type: "Pooling"
  bottom: "inception_5a/output_neg"
  top: "inception_5b/pool_neg"
  pooling_param {
    pool: MAX
    kernel_size: 3
    stride: 1
    pad: 1
  }
}
layer {
  name: "inception_5b/pool_proj_neg"
  type: "Convolution"
  bottom: "inception_5b/pool_neg"
  top: "inception_5b/pool_proj_neg"
  param {
  name: "inception_5b/pool_proj_w"
    lr_mult: 1
    decay_mult: 1
  }
  param {
  name: "inception_5b/pool_proj_b"
    lr_mult: 2
    decay_mult: 0
  }
  convolution_param {
    num_output: 128
    kernel_size: 1
    weight_filler {
      type: "xavier"
    }
    bias_filler {
      type: "constant"
      value: 0.2
    }
  }
}
layer {
  name: "inception_5b/relu_pool_proj_neg"
  type: "ReLU"
  bottom: "inception_5b/pool_proj_neg"
  top: "inception_5b/pool_proj_neg"
}
layer {
  name: "inception_5b/output_neg"
  type: "Concat"
  bottom: "inception_5b/1x1_neg"
  bottom: "inception_5b/3x3_neg"
  bottom: "inception_5b/5x5_neg"
  bottom: "inception_5b/pool_proj_neg"
  top: "inception_5b/output_neg"
}
layer {
  name: "pool5/7x7_s1_neg"
  type: "Pooling"
  bottom: "inception_5b/output_neg"
  top: "pool5/7x7_s1_neg"
  pooling_param {
    pool: AVE
    kernel_size: 7
    stride: 1
  }
}
layer {
  name: "pool5/drop_7x7_s1"
  type: "Dropout"
  bottom: "pool5/7x7_s1_neg"
  top: "pool5/7x7_s1_neg"
  dropout_param {
    dropout_ratio: 0.4
  }
}

# -- PREPROCESSING FOR LOSS 3

layer {
  name: "loss3/classifierCustom_neg"
  type: "InnerProduct"
  bottom: "pool5/7x7_s1_neg"
  top: "loss3/classifierCustom_neg"
  param {
  name: "loss3/classifierCustom_w"
    lr_mult: 1
    decay_mult: 1
  }
  param {
  name: "loss3/classifierCustom_b"
    lr_mult: 2
    decay_mult: 0
  }
  inner_product_param {
    num_output: 1000
    weight_filler {
      type: "xavier"
    }
    bias_filler {
      type: "constant"
      value: 0
    }
  }
}


layer {
  name: "relu3_neg"
  type: "ReLU"
  bottom: "loss3/classifierCustom_neg"
  top: "loss3/classifierCustom_neg"
}

layer {
  name: "denom3_neg"
  type: "Reduction"
  bottom: "loss3/classifierCustom_neg"
  top: "denom3_neg"
  reduction_param {
    operation: SUMSQ
    axis: 1
  }
}
layer {
  name: "power3_neg"
  type: "Power"
  bottom: "denom3_neg"
  top: "power3_neg"
  power_param {
    power: -0.5
    shift: 9.99999996004e-13
  }
}
layer {
  name: "reshape3_neg"
  type: "Reshape"
  bottom: "power3_neg"
  top: "reshape3_neg"
  reshape_param {
    shape {
      dim: 1
    }
    axis: -1
    num_axes: 0
  }
}
layer {
  name: "tile3_neg"
  type: "Tile"
  bottom: "reshape3_neg"
  top: "tile3_neg"
  tile_param {
    axis: 1
    tiles: 1000
  }
}
layer {
  name: "elwise3_neg"
  type: "Eltwise"
  bottom: "loss3/classifierCustom_neg"
  bottom: "tile3_neg"
  top: "elwise3_neg"
  eltwise_param {
    operation: PROD
  }
}


# -- LOSSES DEFINITION

# -- LOSS 1

layer {
  name: "loss1/loss1"
  type: "Python"
  bottom: "elwise1"
  bottom: "elwise1_pos"
  bottom: "elwise1_neg"
  top: "loss1/loss1"
  top: "correct_pairs_1"
  python_param {
    module: "triplet_loss_layer"
    layer: "TripletLossLayer"
    param_str: "{'margin': 0.5}"
  }
  loss_weight: 0.3
  loss_weight: 0
}


# -- LOSS 2

layer {
  name: "loss2/loss2"
  type: "Python"
  bottom: "elwise2"
  bottom: "elwise2_pos"
  bottom: "elwise2_neg"
  top: "loss2/loss2"
  top: "correct_pairs_2"
  python_param {
    module: "triplet_loss_layer"
    layer: "TripletLossLayer"
    param_str: "{'margin': 0.5}"
  }
  loss_weight: 0.3
  loss_weight: 0
}


# -- LOSS 3

layer {
  name: "loss3/loss3"
  type: "Python"
  bottom: "elwise3"
  bottom: "elwise3_pos"
  bottom: "elwise3_neg"
  top: "loss3/loss3"
  top: "correct_pairs"
  python_param {
    module: "triplet_loss_layer"
    layer: "TripletLossLayer"
    param_str: "{'margin': 0.5}"
  }
  loss_weight: 1
  loss_weight: 0
}
